notebooks/modelo_rnn_2.pth (torch, 103291 bytes, 7 tensors)

embed.weight f4 [194, 32]
000000 db 3f 2f bf 21 8a 15 bf 94 31 f2 3d 79 89 3b 40
       -0.6845681 -0.58413893 0.118258625 2.9302657
000010 27 2a 8d bf 7c be 83 bf 85 65 9a 3f 6f a2 98 3e
       -1.1028489 -1.0292506 1.2062231 0.29811427
000020 ef 18 30 3f 28 88 0e 3e fd 9a 2c bf 3d 8e 76 3f
       0.68788046 0.13919127 -0.67423993 0.9631079
000030 b2 21 fb bd 49 3c 01 bf d6 5c 93 3e 85 8c 04 3f
       -0.12262286 -0.5048261 0.28781766 0.51776916
000040 34 e2 80 3e 9b 67 f1 3f 69 2c 78 be 0d a5 64 3f
       0.2517258 1.8859743 -0.24235691 0.8931435
000050 1c 9b 79 be b4 d2 70 bf 41 ca 26 c0 f6 5e 81 3f
       -0.24375576 -0.9407151 -2.6060946 1.0107105
000060 9e fd 08 c0 15 66 cc bf be 8b 4c bf b6 a6 1b c0
       -2.1404796 -1.5968653 -0.7990073 -2.4320502
000070 e7 00 67 3f 54 30 aa bf 75 ed 7e 3f ad 47 96 bd
       0.9023575 -1.3295999 0.9958108 -0.0733789
000080 26 f9 05 bf ba 7a 29 bf f5 87 70 bf 73 11 58 3f
       -0.52333295 -0.6620289 -0.93957454 0.84401625
000090 5a 2e 7d 3e 9e 37 86 3c 21 94 cb 3e f8 27 29 3e
       0.24724713 0.016383942 0.3976145 0.16519153
0000a0 17 97 ef 3e 1a ba ba bd cf c8 7c 3f 57 e1 2a bf
       0.4679496 -0.09117527 0.9874391 -0.6675009
0000b0 f8 1f d8 bf a4 ac a4 3d c5 d0 73 3f cd 17 fb 3e
       -1.6884756 0.08040741 0.9524043 0.49041596
0000c0 79 b7 ce be ac 1e 6a be 11 40 1f 3f 8d 22 a4 3e
       -0.40374354 -0.22863263 0.6220713 0.3205761
0000d0 58 ad 4b 3e b8 ee 2e 3e 1d a8 14 bf 73 22 cf bd
       0.19890344 0.17083251 -0.5806902 -0.101139925
0000e0 df e8 05 3f a2 39 e6 be 42 80 b5 be 99 cc 25 bf
       0.5230846 -0.44965845 -0.35449415 -0.64765316
0000f0 d4 af a8 3f 24 0b c4 3e fe cb 27 c0 b9 00 1d 3f
       1.3178658 0.3828975 -2.6218257 0.6132923
000100 01 cd 8c 3c b3 e1 3f bf 45 8c 5f 3f a8 fa 9a 3f
       0.017187597 -0.74953765 0.8732341 1.2107744
000110 fa e5 44 3f e4 55 b2 bf 43 6a 6b bf 2f be 4e 3f
       0.76913416 -1.3932462 -0.9195902 0.8075895
000120 38 b7 3a bf 7a 57 b4 bf 13 77 be bd de 55 2b 3f
       -0.7293582 -1.4089196 -0.09300055 0.669279
000130 9b 96 83 3e dc 07 86 3e 3a 71 2a c0 7a a5 34 bf
       0.2570084 0.2617787 -2.6631608 -0.70565
000140 6a 70 c9 be 02 0d 87 be 20 89 92 3f 19 1d ff 3e
       -0.39343578 -0.26377112 1.1448097 0.49826887
000150 25 6d 34 3e 23 e6 e3 be 86 6f 0a 3f f3 09 3e 3f
       0.1761976 -0.44511518 0.5407642 0.7423393
000160 b4 90 11 be 83 8c 5e 3e 14 4f 44 bf 26 1d 1b bf
       -0.14215356 0.21733288 -0.76683164 -0.6059135
000170 7f 9e b7 3e 9c 56 27 3f 47 86 01 3f 86 4a f3 3e
       0.3586311 0.6536653 0.50595516 0.47517794
000180 33 1e 0b 40 8f 3c 50 3e 22 97 67 bf 37 3b a6 3f
       2.1737182 0.20335601 -0.90464985 1.2986821
000190 1b e5 0d 3f 61 47 8d 3f 0c c5 06 bf 6e 44 f1 bf
       0.5542771 1.1037408 -0.5264442 -1.8849008
0001a0 33 30 40 bf 96 0b ba bf c5 e5 e0 bd 6a bf 49 3f
       -0.75073546 -1.4534786 -0.10981325 0.788077
0001b0 46 4b 6e bf 3b 04 b6 bf 6c a3 4e bf 03 65 0e 3f
       -0.9308361 -1.4220041 -0.8071811 0.5562288
0001c0 09 d7 42 40 7a 4a dc bf 12 b5 bd 3f 80 fc 21 3f
       3.0443747 -1.7210228 1.4820883 0.6327591
0001d0 24 02 d5 be 19 47 7d bf d2 86 b1 3d be de d0 3f
       -0.41603196 -0.9893661 0.08668293 1.6317976
0001e0 b0 84 94 3f a0 5c 5d 3f f0 4b 8b bf b6 86 19 3f
       1.1602993 0.8646946 -1.0882549 0.5997118
0001f0 df da 6b bf 11 d7 bb 3f 27 13 30 3f 7b 75 ec 3e
       -0.92130846 1.4675008 0.68779224 0.4618338
000200 93 89 11 3e 5c 48 bf 3f bd e8 80 3f f0 77 d2 3f
       0.14212637 1.4943957 1.0071026 1.6442852
000210 7c c6 44 3f 4e 39 e5 3f 91 8e ab be c8 85 67 bf
       0.76865363 1.7908113 -0.33507207 -0.9043851
000220 41 83 3b 3f e7 b5 73 bf c3 7e 3a be 7c 5b 37 3f
       0.7324715 -0.95199436 -0.18212418 0.7162397
000230 66 e3 1b bf a2 c4 99 3f 95 90 05 bf a4 71 0a be
       -0.6089386 1.2013133 -0.5217374 -0.13519913
000240 f7 38 85 bf c2 36 0f 3f fd 78 27 3f 0d 2e 29 c0
       -1.0408009 0.5594293 0.6541899 -2.6434357
000250 1d 8e ad be 87 00 a3 3d ba 6a 8f bf e7 3d 46 bf
       -0.33897486 0.07959085 -1.1204445 -0.77438205
000260 4e 73 39 3f 1f 76 30 bf 89 ad 5d bf 0e 6e d6 3f
       0.72441566 -0.6893024 -0.8659292 1.6752336
000270 d5 44 2c c0 b2 2a 9f 3f 8d 11 0f 40 24 8f 8a 3f
       -2.6917012 1.2434905 2.2354462 1.0824933
000280 74 91 b2 3d 62 3a d5 3c fd 7a 23 c0 34 cb 41 bf
       0.08719149 0.026028816 -2.5543816 -0.7570069
000290 50 a8 81 bf 1c c7 d6 3e e3 be d9 be 45 2a 23 3f
       -1.012949 0.41948783 -0.42528448 0.63736373
0002a0 68 97 48 c0 61 b6 87 3f 5c 3c 31 3f 9c 95 e7 3e
       -3.134241 1.0602533 0.69232726 0.4523133
0002b0 b6 c4 c1 3e bc 2d 3c 3f d6 d5 8b 3e 3e ba 15 c0
       0.3784539 0.73507285 0.2731158 -2.3394923
0002c0 7b 40 4f be 6d 80 09 bf 98 2e 6a bf c2 68 81 3e
       -0.20239441 -0.5371159 -0.91477346 0.25275236
0002d0 cc 77 86 be 73 9f 2d bf 58 4d c2 bf bc 53 0b be
       -0.26263273 -0.67821425 -1.5179853 -0.13606161
0002e0 6f 52 07 40 58 60 93 bd d6 b8 ff bf 73 f0 88 bf
       2.1144063 -0.071961105 -1.9978282 -1.0698379
0002f0 87 09 74 be fe bf 1a 3a a5 27 35 bf 24 da 9e bf
       -0.2383176 0.0005903243 -0.7076362 -1.2410321
000300 e1 74 30 be d6 eb 0d 3f a6 ee 4f bf 19 3b b6 bf
       -0.17232086 0.5543798 -0.81223524 -1.4236785
000310 b9 7f fe be e7 bf be 3e af 3a a1 be 9f 3e 89 be
       -0.4970682 0.37255785 -0.31490085 -0.2680559
000320 fb ef 7a 3f d0 bc 18 3f aa 61 fd bf 2c 57 0e c0
       0.9802243 0.59663105 -1.979543 -2.2240705
000330 68 ad 6d bf ac 14 60 c0 cc 60 19 3f 10 67 8f bd
       -0.9284272 -3.5012617 0.59913325 -0.070020795
000340 c7 33 1f 40 8b 29 4c 3f f5 ff bf bf 14 37 0b c0
       2.4875352 0.7975089 -1.4999987 -2.1752367
000350 e3 23 b3 bf 4f 72 cf 3f 9a 88 ac bf 4c 03 a8 be
       -1.3995327 1.6206759 -1.3479187 -0.32815015
000360 b8 7e 6c bf 11 86 8b 3f e6 2b 0c c0 c9 25 c0 3f
       -0.9238086 1.0900289 -2.1901793 1.5011531
000370 57 57 17 3f ea 03 96 3e a4 5b c1 bd 8b 75 fb bc
       0.59117645 0.2929986 -0.09441307 -0.030695697
000380 31 89 a6 3f 99 99 5b bf 2d f3 43 bf e9 c7 13 bf
       1.3010617 -0.85781246 -0.7654293 -0.57726914
000390 bd 29 95 3e 5b b1 2d 40 82 df 07 3e 46 5f c1 3f
       0.29133406 2.71395 0.13268855 1.51072
0003a0 e9 05 d1 bf 8e 39 f8 bf b4 94 ad 3f 37 10 2f be
       -1.6329929 -1.9392564 1.3561006 -0.17096029
0003b0 ae b8 1d c0 da 17 05 bf e7 3e 94 3f 2a 2c ce bd
       -2.464397 -0.5198952 1.1581696 -0.100670174
0003c0 45 f6 7b 3f 4f 6b d7 3e c8 a4 14 3f a9 d2 5b bf
       0.9842265 0.42074057 0.58063936 -0.85868317
0003d0 69 5f 08 bf 7b b7 f5 bf 54 d1 03 bf b2 7c 8d bf
       -0.53270584 -1.9196619 -0.51491284 -1.1053679
0003e0 36 ad a4 bf 67 61 17 c0 85 a6 52 be 71 7a a9 3f
       -1.286536 -2.36532 -0.20571335 1.3240491
0003f0 dc 39 1c 3e 26 6e e2 bf e7 7d 3c bf 9a 0a b4 3e
       0.15256447 -1.7689865 -0.7362961 0.35164338

rnn.weight_ih_l0 f4 [64, 32]
000000 97 83 8a 3e 00 24 fe 3d a2 83 9c bd 1c 6d 78 3b
       0.2705352 0.1240921 -0.076422945 0.003790683
000010 70 fa 9e 3e f1 da 13 be 18 de 0f 3e bb 68 5d 3e
       0.31050444 -0.14438988 0.14049566 0.21621983
000020 37 15 67 be 9f cb 10 3f 68 a2 62 be 25 99 fd be
       -0.22566687 0.565607 -0.22132266 -0.49530903
000030 58 b6 3b 3f d3 11 d1 3d cf 05 42 3c 4e 80 fe be
       0.7332511 0.10208478 0.011842205 -0.49707264
000040 1c d1 28 3e e2 e7 0d 3d ff d6 60 3d 0b b5 68 3e
       0.16486019 0.03464497 0.054892536 0.22725312
000050 cc 14 c8 3d 8f 24 95 bf 6d 13 a1 3d be 1c fd 3e
       0.09769592 -1.1651782 0.07865033 0.4943599
000060 28 20 59 3f 5a 02 cb 3e 93 df 38 3d 31 df c9 3e
       0.8481469 0.39650232 0.045135092 0.39428094
000070 a1 7d a9 be 24 9f 2c bc ef ee a0 be a6 f2 04 3f
       -0.3310366 -0.010535989 -0.31432292 0.5193275
000080 2c 8e 98 be 49 1b 11 bf 4c 8a 3e 3f 81 a7 34 3e
       -0.2979597 -0.5668226 0.74429774 0.17642023
000090 90 e8 31 bf b6 f4 03 3f f9 87 b7 3e 80 1d c3 3d
       -0.6949549 0.51545274 0.35845926 0.09527111
0000a0 21 91 0f 3f 4d dc 81 be d0 c6 40 bd 3a d1 d3 bc
       0.56080824 -0.2536339 -0.047064602 -0.025856603
0000b0 9a 48 d8 bd eb 2f 0b 3f 67 42 aa 3e 2b 19 88 3d
       -0.10560723 0.5436999 0.33253786 0.066454254
0000c0 ac 96 fa bd 71 b3 96 bc 0f 5d 18 bd 9a 42 fa be
       -0.1223577 -0.018396111 -0.037198123 -0.48878938
0000d0 3e 6c 81 be 51 bf fb 3e 40 3e e1 bc 40 38 1d be
       -0.25277895 0.491694 -0.027495503 -0.15353489
0000e0 66 6a 22 be c4 f9 dd 3d 6e 25 bd be 29 53 80 be
       -0.158609 0.10838655 -0.3694262 -0.25063446
0000f0 a0 1b 81 3f 2f 9f 86 be 68 db 0e bf a1 37 0e 3f
       1.0086555 -0.26293322 -0.5580354 0.5555363
000100 b9 08 96 3e 36 a3 18 3f 77 0e 69 3e 15 b3 cf 3e
       0.2930353 0.5962404 0.22759424 0.40566316
000110 52 f6 b1 be 62 c6 21 be 61 dc e4 3e 3f bf 37 bf
       -0.3475824 -0.15798333 0.44699386 -0.71776193
000120 8e c4 97 be 01 ba 73 bf bc c7 85 be 74 ed 0a 3f
       -0.29642147 -0.95205694 -0.26128948 0.54268575
000130 d2 80 16 3e b9 39 da be cc af 34 be 2a c4 72 3e
       0.14697579 -0.42622164 -0.17645186 0.23707643
000140 7f f8 bb be 71 10 4c bd b3 ca a6 be 04 2a 77 3e
       -0.36713025 -0.049820367 -0.32576522 0.24137121
000150 9b 71 df 3e 72 89 71 be 24 b1 a4 3e c8 65 79 3e
       0.43641362 -0.23587587 0.32166398 0.24355233
000160 cc da f7 3e 7f 1b 24 3e 6a cb 45 3e b2 e6 9f bd
       0.48409116 0.16026114 0.19315878 -0.078076735
000170 83 5e 72 bd 68 dd 86 bf 29 92 91 3d 8b 74 85 be
       -0.059172165 -1.0536318 0.07107956 -0.26065478
000180 fb 54 8f 3e e1 d2 13 be a1 52 27 be 05 37 0b bf
       0.27994522 -0.14435913 -0.16340114 -0.5438083
000190 ba 0b 95 be 0b b7 3b 3d 58 1b ae be 58 4f af 3e
       -0.2911051 0.04582886 -0.34005237 0.34240222
0001a0 d6 03 30 3f d4 9a 6e 3c c4 2c 8f be 37 1b 91 3e
       0.68755853 0.014563281 -0.2796384 0.28341076
0001b0 3f 52 7a be af 5f 81 3d 14 d4 da be f2 5d 07 bf
       -0.24445437 0.06317078 -0.42739928 -0.52877724
0001c0 3a 06 a1 3d 92 62 b6 3d fa ec 23 bf a8 9a f6 3e
       0.07862516 0.089055195 -0.6403347 0.48164868
0001d0 fd 70 93 be 40 5c 9c bd 63 35 2a 3e 51 31 a4 bf
       -0.2879714 -0.07634783 0.16621928 -1.282755
0001e0 64 e3 5c bd 8a 8c d3 be 35 20 37 bf 87 62 9e bd
       -0.053927794 -0.4131816 -0.7153352 -0.07733636
0001f0 50 93 88 be c1 72 92 3c 3f a8 30 3e 9f 62 b4 be
       -0.2667489 0.017876985 0.17251681 -0.35231492
000200 1e 64 d8 bd 46 5a c8 3e 82 b5 0e 3e a0 c9 e0 be
       -0.10565971 0.39131373 0.13936427 -0.43903828
000210 2d 90 d8 be 24 f7 76 3c 10 a4 c2 be ec 42 ab 3d
       -0.42297497 0.015073571 -0.38015795 0.08362374
000220 1d 02 e4 3e 16 14 ee 3d c2 9e a7 3d ee 63 ad 3e
       0.44532862 0.11624925 0.081845775 0.33865303
000230 39 b6 b1 3e c4 2a be 3e 6e e3 e7 bd 8a c9 34 3d
       0.34709337 0.37142003 -0.11322676 0.044137515
000240 34 c2 9d be f6 a5 5a 3e 5a c3 f2 3d d0 5f a5 3d
       -0.30812228 0.21352372 0.118536666 0.080749154
000250 4f 57 f4 be 6b e9 4a be 33 10 99 3e 9d 15 5b bd
       -0.4772286 -0.19815604 0.29895172 -0.05348741
000260 4b 77 ad 3e a9 f7 18 3f 80 0a 4f 3e 64 7a 04 be
       0.33880076 0.597529 0.20218849 -0.12937313
000270 ac 27 29 3f 7d 43 0c 3f e8 21 69 3e 2b 63 38 be
       0.6607616 0.5479048 0.2276684 -0.1800658
000280 b6 b8 e4 be 55 5a d8 bb 79 0e 82 3e 5d 7d 94 3e
       -0.44672173 -0.0066025653 0.25401667 0.29001895
000290 52 82 26 3e 77 4a 64 3d cd 24 c8 3e 85 83 9d be
       0.16260651 0.055735078 0.39090577 -0.30764404
0002a0 b3 b0 1f be bb 93 a3 be 62 71 b1 be 71 4d 83 bf
       -0.15594749 -0.31948647 -0.34656817 -1.0258008
0002b0 96 ff a8 3e a7 7f 99 be b7 65 4d 3e 2e 92 b7 3e
       0.33007497 -0.29980204 0.20058332 0.35853714
0002c0 66 a9 3e be 17 22 89 3e f2 77 fb bd 84 bc 18 3e
       -0.18619308 0.2678382 -0.12278737 0.14915663
0002d0 d8 1f 80 3f bd ff ec 3e 2f b4 16 bf 8e d5 ce be
       1.0009718 0.46288863 -0.5886869 -0.40397304
0002e0 05 60 2a 3e 77 5f 90 be d9 c6 18 be 1a 69 21 bf
       0.16638191 -0.28197834 -0.14919604 -0.63051
0002f0 56 ab 95 bd c7 98 52 be 71 b8 09 3e af 90 98 3e
       -0.0730807 -0.20566092 0.13449265 0.29797885
000300 80 fd 5d bf fe 77 9a be e1 46 92 3e e6 46 71 be
       -0.86714935 -0.30169672 0.285697 -0.23562202
000310 81 ad 51 be 2c e5 fc 3e 93 e9 92 be b4 e3 82 be
       -0.20476343 0.49393594 -0.28693828 -0.2556435
000320 99 e9 95 be 0a a9 c1 be ea d2 b9 3e 9e 0f 3d be
       -0.29279783 -0.3782428 0.36293727 -0.18462989
000330 34 1a c0 3d fb d8 1b 3e 5e dc c7 bc 8c a5 3b bf
       0.09379998 0.1521949 -0.024397071 -0.7329948
000340 c1 3b d0 be f6 a0 3b 3f e5 03 a1 3e db a3 02 bf
       -0.4067059 0.7329248 0.31448284 -0.51031274
000350 af cc 76 bd ac 5a 40 3f 5b ba 06 3e 0e bc 8d 3c
       -0.060253795 0.75138354 0.13157026 0.017301586
000360 f4 37 d3 3e 70 e0 21 bf 88 b6 4e 3e 34 cb c5 3e
       0.41253626 -0.6323309 0.20186818 0.38631594
000370 dc f3 ab bd 09 e6 0f 3c 4d a4 c3 3d b8 f5 4a 3f
       -0.08396122 0.008782872 0.09552822 0.7928119
000380 0c ca 19 3e ca b5 23 3e e2 73 7e be 5b bc ba be
       0.15018481 0.15987316 -0.24848893 -0.3647183
000390 14 8b 97 bd 27 98 ea be cd 10 35 3e 34 7f 64 be
       -0.07399574 -0.45819208 0.1768219 -0.22314149
0003a0 c2 3b 2a 3f 1f 50 71 3f f7 79 aa 3e 1d 50 51 bf
       0.66497433 0.9426288 0.33296177 -0.8176287
0003b0 08 70 d8 3d 98 c3 42 be f9 42 53 be a0 71 92 be
       0.10568243 -0.19019926 -0.20631017 -0.28602314
0003c0 30 df d9 be ca 2a aa bd 01 e9 df 3e 85 2b 98 bc
       -0.4255309 -0.083089426 0.43732455 -0.01857544
0003d0 24 13 17 bf e3 26 10 3f ce f9 b8 3e 0c aa 7f 3e
       -0.5901358 0.56309336 0.36128086 0.24967211
0003e0 b1 2a 03 be 61 14 a6 be 68 aa fc 3d f5 20 64 bc
       -0.12809254 -0.32437423 0.1233719 -0.013923873
0003f0 fe 88 3f be 59 d1 58 3f 29 c4 52 be a1 87 e0 bd
       -0.18704602 0.8469444 -0.20582642 -0.10963369

rnn.weight_hh_l0 f4 [64, 64]
000000 a9 1c f3 be 71 f0 d3 3e a5 d8 aa 3d a6 46 84 3e
       -0.47482803 0.4139438 0.08342103 0.2583515
000010 d3 d5 5e be ef f5 c7 bb d6 be a9 3e 20 d5 a3 be
       -0.21761255 -0.0061023156 0.3315341 -0.3199854
000020 ac f7 c9 3d 84 a6 6a 3d c6 4b 79 3d 37 ba 30 3e
       0.09861693 0.057287708 0.06086328 0.17258535
000030 e4 fa 92 3d 97 7f 98 3e 25 91 c7 be 9f 43 32 be
       0.0717676 0.29784843 -0.38977924 -0.17408608
000040 0b bc f4 bd 22 4a b5 3d 34 40 8c 3d 72 84 ad 3e
       -0.11949929 0.0885203 0.06848183 0.3389011
000050 dd a3 ba bd d2 38 06 be 07 94 9f be d0 22 29 3e
       -0.09113286 -0.13107613 -0.31167623 0.16517186
000060 6d e8 9f be f3 a0 a6 be 1f fb a7 be a9 c9 68 be
       -0.31232014 -0.3254467 -0.32808778 -0.22733177
000070 fd 9f 99 3e a6 37 b5 bd ba 21 cd be b6 b3 72 3e
       0.30004874 -0.08848505 -0.40064794 0.23701367
000080 ac 9b f0 3c 20 7a 68 3e a2 2a c5 3e e5 eb f4 bd
       0.029371105 0.22702837 0.3850909 -0.11959056
000090 fe d5 c2 be b6 07 08 bd b3 0f 02 3f 2f 68 f1 3e
       -0.38053888 -0.03321048 0.50805205 0.47149798
0000a0 74 54 84 bc bd 0b 64 bc d4 d9 18 be 9e ac 89 3e
       -0.016153552 -0.013918814 -0.14926845 0.2688951
0000b0 4a 96 ff ba 8b ce 65 be 07 a0 fb bb f4 ce a9 bd
       -0.0019499746 -0.22442071 -0.007678989 -0.08291426
0000c0 0a 89 18 3c d8 8a d2 be 77 ba 59 3c 91 af 4d 3d
       0.009310016 -0.41121554 0.013289086 0.05021626
0000d0 69 08 6a be 82 29 fa 3e e0 89 12 be 0a 11 d5 be
       -0.2285477 0.48859793 -0.14310408 -0.41614562
0000e0 9a 43 06 3f b2 af 11 bf 50 fc de 3e f6 77 59 3e
       0.524469 -0.56908715 0.43551874 0.21237168
0000f0 90 49 00 3e 04 c3 8b 3e ac c4 eb 3d cd 0a 89 3e
       0.12528062 0.27297223 0.115121216 0.26766053
000100 6b 5a 7a 3e f1 fc 4d 3e cb 35 2a be fd 2d 32 3e
       0.24448554 0.2011602 -0.16622083 0.17400356
000110 94 a7 e3 bd 17 8d 06 bf 72 9d b2 3e 9f c9 e5 3e
       -0.11115947 -0.52559036 0.34885746 0.44880387
000120 0a 3b f9 bd 6e b7 2c be df ee 8f bc e7 bf 0d be
       -0.12169464 -0.16866848 -0.017569957 -0.13842736
000130 d8 5c 09 3f 2c ec e3 bd f2 0e 48 be 0c ed 93 be
       0.53657293 -0.111290306 -0.19536951 -0.2889179
000140 51 ef 4d 3f 60 17 3e bc df 61 97 be ac 9c 62 3e
       0.8044329 -0.011602253 -0.29566857 0.22130078
000150 a9 31 0f be a8 8b df 3e c0 44 cb 39 89 04 0c 3b
       -0.13983788 0.43661237 0.000387704 0.0021365008
000160 2e 04 ae 3e 29 d5 24 bd d7 65 bc 3b a6 ee 49 3e
       0.33987564 -0.040242348 0.005749445 0.19719943
000170 b9 fd dc bc 07 0c 53 3e 5e b9 bf 3d fa e3 ed 3e
       -0.026976453 0.20610057 0.09361528 0.46462995
000180 e4 d5 30 3e ad e8 87 bd 95 53 c5 be 06 55 8f 3e
       0.17269093 -0.06636176 -0.3854033 0.27994555
000190 e3 b9 13 bd eb d0 08 be 6f 3e 56 be 1b 72 15 3e
       -0.036065947 -0.13360946 -0.20922254 0.14594309
0001a0 1a 6b b5 bd 43 93 04 3f e2 96 dc bd 83 9d 02 be
       -0.088583186 0.51787204 -0.10770966 -0.12755398
0001b0 64 a1 a9 be c2 9d 18 3e 06 d8 9a 3e 5d 47 41 be
       -0.33130944 0.1490393 0.30242938 -0.18874879
0001c0 27 bd 58 3e f7 27 51 bf 52 51 83 3d 0a 7f 63 bc
       0.21165906 -0.81701607 0.06411995 -0.013885269
0001d0 76 e4 44 3d b8 4e cf 3e 4b 9a 02 3f 01 d1 6d be
       0.04806944 0.40489745 0.5101668 -0.2322426
0001e0 50 32 fe 3e f3 e9 c4 bd 7f 53 da bd 96 37 6f 3d
       0.4964776 -0.09614935 -0.10660457 0.05840262
0001f0 84 f5 90 be 0f 39 1a 3e 04 14 a7 3d a1 0c 16 be
       -0.28312314 0.15060829 0.081581146 -0.14653255
000200 a2 90 5a 3f e1 1d 46 3e c8 f9 03 bf a8 84 8e bc
       0.8537694 0.19347335 -0.5155301 -0.01739724
000210 9b f0 0d 3e 97 e8 91 3e 31 6d 5f 3e 5a ef b3 bd
       0.13861315 0.28497764 0.21818997 -0.08785887
000220 a9 ac 87 3e db f6 aa bd 60 79 5b 3d ed b8 12 3f
       0.26498917 -0.08347865 0.05358255 0.57313424
000230 6d 37 c2 3e 8a d7 ca be d4 37 ac be f4 04 b8 be
       0.37932912 -0.39617568 -0.33636343 -0.3594128
000240 10 5b bb 3e 70 75 10 be d0 5d a7 3e 39 f6 2a 3e
       0.36592913 -0.14107299 0.3268876 0.16695489
000250 48 83 05 3d 0d 33 9f 3c b2 3a 37 be 57 60 c4 3e
       0.032595903 0.019433523 -0.17893484 0.3835475
000260 c7 73 00 be 57 f2 fc 3d d5 b5 f1 bd 1c b2 c5 3e
       -0.12544166 0.1235091 -0.1180226 0.3861245
000270 54 10 c8 bd 2f 6d 3f be 04 ec be 3c 4d 68 4e be
       -0.09768739 -0.18693994 0.0233059 -0.20156975
000280 36 15 e9 3e 79 25 c6 bb 22 d2 88 be 7e 2d 32 3e
       0.45523995 -0.0060469476 -0.2672282 0.17400166
000290 ae 0b 04 bd d0 32 a8 3e c4 42 15 bd c1 ba a3 be
       -0.0322377 0.32851267 -0.036440626 -0.3197842
0002a0 f4 83 b5 3e 7b 37 4b 3e 1f 61 b5 3d 29 e1 25 be
       0.35452235 0.19845383 0.08856415 -0.16199173
0002b0 f3 5c c7 3d 87 82 d0 3c 6c 9a 32 be 80 7c 5f bf
       0.097345255 0.025452865 -0.1744172 -0.87299347
0002c0 e4 01 04 be b0 97 44 3e 1e 3a 51 bd 46 14 04 3f
       -0.12891346 0.19198489 -0.051080815 0.51593435
0002d0 54 d9 03 be 61 e5 82 bd 65 42 cd 3e ff 7b a9 3e
       -0.12875873 -0.06391407 0.40089718 0.33102414
0002e0 81 1e 61 be 84 59 e6 bd 9a 6f 52 3d 37 77 c0 3e
       -0.21984293 -0.112475425 0.051375963 0.37590954
0002f0 2f 85 5f 3e 5f 33 df 3e a6 22 7b 3f 66 9d ed bd
       0.2182815 0.4359388 0.98099744 -0.11602287
000300 80 df af bd 06 c1 be bd 03 96 8d be 9a b4 2c be
       -0.08587551 -0.0931416 -0.27653512 -0.16865769
000310 99 43 06 bf 92 86 cf be c2 95 24 be a7 c3 77 be
       -0.52446896 -0.40532357 -0.16072753 -0.24195729
000320 39 05 c1 be 70 a0 3b bc 1b e4 45 3d 1b b7 63 bd
       -0.37699297 -0.0114518255 0.04831324 -0.055594545
000330 88 b8 05 3e 4a 51 03 3f 01 6b 22 bf 7e 6f e7 3e
       0.13058674 0.5129591 -0.63444525 0.4520225
000340 4d 86 02 be ee bc a7 be b0 15 3d 3e 84 9a a2 bd
       -0.12746544 -0.3276133 0.18465304 -0.07939628
000350 df 7b 01 3e f8 bd 0f bf 7d 03 1f 3e 9e dd 75 be
       0.1264491 -0.56149244 0.15528674 -0.24010321
000360 a9 d7 f6 be 43 3d 58 bd cc 3d 8b 3d d0 53 47 3e
       -0.4821141 -0.0527928 0.06798896 0.19465566
000370 68 7c 04 3f b6 39 20 3e 78 ec 9b be 07 5f 5a 3e
       0.5175233 0.15647015 -0.3045385 0.21325313
000380 a0 70 17 3e da 76 0a 3e 62 7d f2 3c d4 f7 b7 bd
       0.14789057 0.13521901 0.029600803 -0.08982816
000390 4b 28 2c be ee 6e 9a be f9 17 76 be 03 fe 72 3f
       -0.16812246 -0.30162758 -0.24032582 0.9491884
0003a0 19 22 7a be b6 7c 04 3f e0 8e 11 3e 19 1c 02 be
       -0.2442707 0.51752794 0.14214659 -0.12706031
0003b0 5b 18 78 3e dc 60 ac 3e 50 c3 aa 3e 20 2f 1b 3e
       0.24228041 0.33667648 0.33352137 0.15154696
0003c0 f9 ea 38 3e 14 33 1a be b6 55 51 3d 4b 54 53 3e
       0.18058385 -0.15058547 0.05110713 0.20637624
0003d0 53 7f 50 bd f8 7f 87 3e d8 8a e3 3d 39 c2 72 be
       -0.050902676 0.2646482 0.11110467 -0.23706903
0003e0 e1 1a 4f be de 5c 0d bf a7 b8 cc be 8d d6 de 3e
       -0.20225097 -0.5521983 -0.3998463 0.43523064
0003f0 85 a4 b0 3e a5 1c c7 3d d3 dd 1f 3d a5 56 bc bd
       0.34500518 0.097222604 0.039029907 -0.09196214

rnn.bias_ih_l0 f4 [64]
000000 42 9c 53 be 21 5e 06 3e ec b4 86 be 8c 43 ef 3e
       -0.20665076 0.13121845 -0.26309907 0.46731222
000010 25 73 00 3f 95 91 3a be d8 31 06 bf 24 74 6b 3e
       0.50175697 -0.18219598 -0.52419806 0.22993523
000020 12 76 05 3e e8 b0 a7 3e 2c a1 05 bf 1b 02 84 3e
       0.13033321 0.32752156 -0.52199054 0.25782856
000030 5a 29 c3 3c 7c c9 6a ba fb fa 1e 3e cd b3 9c be
       0.023823429 -0.0008956415 0.15525429 -0.30605927
000040 95 fd ff be dd 34 c7 be ff 4c af bd 7d d6 1f be
       -0.49998155 -0.3890752 -0.08559608 -0.15609165
000050 bb 47 ab be f0 98 e6 3e a8 88 b4 3e d8 ea 24 3d
       -0.33453164 0.45038557 0.3526051 0.040263027
000060 eb 7f 12 bf 43 ad 5e 3d 57 57 f8 3d 86 a6 7f be
       -0.5722644 0.054364454 0.12126034 -0.24965867
000070 5f 17 d5 3d 92 44 1d 3e 2a 63 a9 be 3d 92 db bd
       0.10404848 0.15358189 -0.3308347 -0.10721252
000080 25 70 1c bf 39 53 47 3e 58 c0 f0 bd cf 9a e2 3d
       -0.6110862 0.1946534 -0.11755437 0.11064684
000090 a3 0b 8d be 39 c5 0f 3f 6f 07 50 3d d8 5b 22 bc
       -0.2754794 0.5616031 0.05078834 -0.009909593
0000a0 25 10 c3 bc 01 12 83 bc c1 14 c3 be 74 a4 bd be
       -0.02381141 -0.015999796 -0.3810177 -0.3703953
0000b0 4f cd 07 bf 75 e8 cf 3e d6 9b 0b be 75 90 f7 3c
       -0.5304765 0.40607038 -0.13633665 0.03022025
0000c0 ba b4 36 be 78 1c 0a bf d5 7c 2c 3e e5 b9 de be
       -0.17842379 -0.5394969 0.16844495 -0.435012
0000d0 29 dd 47 be a6 b1 c8 3c 44 dc 8c be c1 7f 33 bf
       -0.1951796 0.024498772 -0.275118 -0.7011681
0000e0 4e ce 3c bf 83 a5 44 be d0 44 1b bd 1b 51 d6 3e
       -0.73752296 -0.19203763 -0.03790742 0.41858754
0000f0 fc 0a 8e be b7 82 9a 3d 1b 96 8c 3e c9 67 b6 3d
       -0.27742755 0.07544463 0.2745827 0.08906514

rnn.bias_hh_l0 f4 [64]
000000 4d 15 34 bd bf b3 ca 3d a8 af a2 be 80 df ad 3e
       -0.043965627 0.09897565 -0.3177464 0.3395958
000010 d9 08 d1 3e f8 03 fb bd ad a1 30 bf 5d 27 d6 3e
       0.40827063 -0.12256616 -0.689967 0.41826907
000020 2c ba 7f 3e 9e 95 ef 3e ca 64 12 bf fd ff 42 3e
       0.24973363 0.46793836 -0.5718504 0.19042964
000030 11 39 26 be 21 ee 57 3d 87 30 1a 3e 65 af ae be
       -0.16232707 0.05271733 0.15057574 -0.3411819
000040 ef 75 0f bf 72 98 d5 be df 6b a0 bd d0 de fb bd
       -0.5603933 -0.4171787 -0.07833075 -0.122983575
000050 2f fd ce be b9 4a b9 3e 36 9f de 3e cd 13 8f 3e
       -0.4042754 0.3618982 0.43480843 0.27944794
000060 d7 ed 0e bf 3f 78 24 be fc d1 3f 3d 17 9a 45 be
       -0.55831665 -0.16061495 0.046831116 -0.19297062
000070 c4 7c ef bd 63 00 5a 3e 0e 30 cf be ff 2d 68 3d
       -0.11693719 0.2128921 -0.4046635 0.05668449
000080 4e a5 25 bf 90 15 a1 3d 5c 4d 22 be 54 08 b9 3b
       -0.6470536 0.07865441 -0.15849823 0.0056467447
000090 10 83 75 be c7 f5 01 3f 67 3b eb 3b e4 95 11 be
       -0.23975778 0.5076565 0.007178712 -0.14217335
0000a0 89 cd f2 3d 8d af 31 3e 15 aa e3 be b5 dc e4 be
       0.11855609 0.17352124 -0.444657 -0.44699636
0000b0 2c 59 c4 be c7 c3 b5 3e bb 12 05 bd 30 bd 8a bd
       -0.38349283 0.3550093 -0.032488566 -0.06774366
0000c0 ca fa 97 be 9f 8e e6 be cf f9 48 3c 29 f4 e4 be
       -0.29683524 -0.45030686 0.01226659 -0.4471753
0000d0 ee 39 39 bd 10 40 c7 bc 02 71 e0 be 09 bc 1b bf
       -0.04522126 -0.02432254 -0.43836218 -0.60833794
0000e0 85 0f 66 bf 33 01 64 3a 4a 15 5e bc 29 00 d8 3e
       -0.8986743 0.00086976885 -0.01355488 0.42187622
0000f0 75 e9 c3 be 44 22 49 3e bd bb b8 3e 04 1d fc bd
       -0.3826405 0.19641978 0.36080733 -0.12310222

fc.weight f4 [194, 64]
000000 e3 5e 66 be 3b b8 83 bd 6b 57 9e 3e ae 60 83 be
       -0.22497134 -0.064316235 0.3092607 -0.25659698
000010 d9 91 78 3d 3f 9d d8 bd a6 24 19 3e dc d6 02 3e
       0.060685966 -0.10576867 0.14955387 0.12777275
000020 65 d3 97 bd 65 cc 1b bd 53 07 49 3e 11 25 06 3e
       -0.07413367 -0.038036723 0.196317 0.13100077
000030 2d c3 d7 3e f5 5e 8d 3d 30 86 7a be 14 a6 c7 3e
       0.42141095 0.06902877 -0.24465251 0.38993895
000040 85 b7 2a 3d 44 43 30 3f d2 42 9e bd 2e 0b ba 3e
       0.041678924 0.6885264 -0.07727589 0.36336654
000050 05 9e c3 3c bd 5a 54 3d d7 e9 98 be 12 c6 a6 bb
       0.02387906 0.051844347 -0.29865906 -0.00508953
000060 17 63 99 3e a7 e1 e9 3e 85 12 07 bd d7 e4 2e 3e
       0.29958412 0.45679972 -0.032976646 0.17079483
000070 9c 1e f9 3e ab c3 bf be 35 4d 15 bd 39 98 21 3f
       0.48656166 -0.3745397 -0.036450583 0.631229
000080 22 aa 93 3e bc 71 91 bd 85 67 4a 3b 91 9d d7 be
       0.2884074 -0.07101771 0.0030884456 -0.421124
000090 b0 a2 3c be a1 4a 2c 3d 10 f8 09 bf 7d f1 69 be
       -0.18421435 0.04206336 -0.5389414 -0.22846027
0000a0 3e 73 78 3e 94 26 b4 bd 9a c4 13 bc e1 b2 24 3d
       0.24262711 -0.08796421 -0.009019041 0.040209655
0000b0 30 30 a5 3e 93 7a d2 bd ea 6c 40 be 78 72 e3 bd
       0.32263327 -0.102772854 -0.18791547 -0.111058176
0000c0 0f 11 5c 3c 5a 20 a8 bd a6 51 01 3e 76 b0 d9 3d
       0.013431801 -0.082092956 0.12628803 0.106293604
0000d0 80 2e c8 3d 26 71 8b 3e 62 4d b5 3e 36 92 a5 3e
       0.09774494 0.27234763 0.354106 0.32338113
0000e0 7b 0a 59 bd 8c 5f 0d 3e 52 e4 db 3c 79 71 93 3e
       -0.05298851 0.1380598 0.02684227 0.2879751
0000f0 6a b5 c5 3d 51 9e 9e be c5 71 20 bc 4c 99 c7 bd
       0.096537426 -0.3098016 -0.00979275 -0.09746036
000100 58 21 f7 be 48 1b da bd f5 62 25 3f 19 40 3a be
       -0.48267627 -0.10649735 0.6460412 -0.18188514
000110 2b 7e a4 3d 91 cb a4 3e 5a 6f c7 be 06 75 cd be
       0.08031877 0.3218656 -0.38952142 -0.40128344
000120 9e 14 55 3f 1c bb b2 3e 5b 50 00 bc c3 44 e3 be
       0.83234584 0.34908378 -0.007831658 -0.443884
000130 09 47 16 3e 04 2d 1a 3d 39 fe 65 3e 16 01 03 bf
       0.14675535 0.037640586 0.2246026 -0.5117353
000140 34 b2 8c be 5a 39 e5 be 1a 97 33 bf f3 c4 48 be
       -0.27479708 -0.44770318 -0.7015244 -0.1960638
000150 f2 53 40 be 0d 8f ff 3e d0 02 d9 3e c1 e0 75 be
       -0.18782023 0.49913827 0.42384958 -0.24011518
000160 aa 40 92 be 73 31 04 3f 4c aa 80 3e ff c3 26 be
       -0.2856496 0.51637954 0.25129926 -0.16285704
000170 ee 6c 3f 3e 71 ef 4d 3d 82 e1 1b be 06 65 b2 3d
       0.18693897 0.050277177 -0.15222743 0.08710675
000180 20 db e7 3e f5 64 85 3e 2b d7 9c be 9d 9e f2 be
       0.45284367 0.26053587 -0.3063291 -0.47386637
000190 4e aa 4d be 94 bc ad 3e da 42 c3 be a8 89 62 3e
       -0.20084497 0.33932936 -0.3813694 0.22122824
0001a0 3e 54 45 3d 7c 81 e5 bd d6 d1 3d be 2b 2f 74 bf
       0.048176043 -0.11206338 -0.18537077 -0.9538447
0001b0 04 95 2d bf 9f 53 31 3e 8f 84 3d bf b0 1f 0a 3f
       -0.67805505 0.17317055 -0.74030393 0.539546
0001c0 e7 62 f8 be f3 de 94 be 06 6b 3b 3e 5b 41 57 bd
       -0.48512957 -0.29076347 0.18302545 -0.052552562
0001d0 ac 35 3c 3f a1 e3 4f 3e 70 fc 8c bd e0 8b f4 bd
       0.73519397 0.20301677 -0.06884086 -0.119407415
0001e0 04 26 05 3f 3b e5 19 bf 3f a7 84 bd 5c c3 23 3f
       0.5201113 -0.601154 -0.06477212 0.6396997
0001f0 b6 3f 62 3e a4 66 c2 be 16 e2 d2 3e 35 31 0d bf
       0.22094616 -0.37968934 0.41188115 -0.5515321
000200 b3 09 6a 3d 1f cb 46 3d dc 82 b4 3e 78 af ad be
       0.057138156 0.048533555 0.35256088 -0.33922935
000210 ba 59 1a bf 13 33 60 3d 4b 31 8e 3f ce 83 c1 be
       -0.6029316 0.05473621 1.1108793 -0.37795871
000220 f8 93 f9 be ae 9d 10 bf 03 d8 71 3f ad 99 f9 bd
       -0.48745704 -0.564906 0.9447023 -0.121875145
000230 47 5b 68 3e 40 d2 2c be 73 38 3a be b6 c0 0e 3f
       0.2269107 -0.16877079 -0.18185596 0.55762804
000240 ad a0 41 3f 73 ef 12 3f 82 c0 9d be 3f 11 71 3f
       0.75635797 0.5739662 -0.30810934 0.9416694
000250 87 b6 c4 3d 77 84 56 bf 29 67 93 bf 6f 01 ce be
       0.09605127 -0.83795875 -1.1515857 -0.4023547
000260 55 27 31 3f 10 e7 45 be bc 7e 31 be 93 3b b1 bd
       0.6920064 -0.19326425 -0.17333502 -0.08653941
000270 19 4b f6 3e 86 24 a4 be 2f 46 40 3f d7 76 b0 3d
       0.4810417 -0.32059115 0.7510709 0.08616417
000280 c4 be 76 3f 26 1d a7 bd 1d 67 ae 3e b8 ae 5f bd
       0.96384835 -0.081598565 0.34063044 -0.054609984
000290 75 da 08 3f 32 ed 4a bf f6 8f cd be e8 1a e5 3d
       0.5345834 -0.7926818 -0.40148896 0.111867726
0002a0 5b e6 81 3e 9d 43 f7 bd 4d f5 93 3e 32 da 04 3f
       0.2537106 -0.12073443 0.28898087 0.5189544
0002b0 b4 17 32 3f 81 54 e5 bd 01 fe ff be 99 f6 31 3e
       0.6956742 -0.111977585 -0.49998477 0.17379226
0002c0 9f 68 0f 3f 9d 89 21 3f 7a 7d 40 3e ea 5f 61 3f
       0.56019014 0.63100606 0.18797866 0.8803698
0002d0 cc 7f 15 3f c0 d1 57 3e 81 40 3e 3f bf d6 8f 3f
       0.5839813 0.21076107 0.74317175 1.123741
0002e0 97 86 bb 3e 2d 18 cc 3e a0 c4 4f 3c 58 b8 e5 be
       0.3662612 0.39862195 0.012681156 -0.44867206
0002f0 5b f2 43 3f 48 b2 03 bf ed 0f 64 be a7 23 ce be
       0.7654168 -0.5144391 -0.222717 -0.40261576
000300 b6 74 95 3e 71 c5 99 bd 6e 61 e9 3c 6a df 6a 3e
       0.29190606 -0.07508362 0.02848884 0.22936788
000310 c5 dc 25 3e 4d 68 08 bf ea a4 69 3e d8 dc a7 be
       0.16197498 -0.5328415 0.22816816 -0.32785678
000320 09 8d 96 3e 9c 3f 16 3e 9b 75 b6 be 27 fe e8 bd
       0.29404476 0.14672703 -0.356366 -0.11376601
000330 91 7a ab 3d e5 9b 2e 3f ed ee 3d 3e 04 c8 f5 bd
       0.08372987 0.68206626 0.18548174 -0.120010406
000340 c4 79 65 be ac 04 69 3e ff 55 95 3b 13 65 13 bf
       -0.22409731 0.22755688 0.0045573707 -0.575761
000350 20 c8 09 3e 57 31 80 be 97 d6 b0 bd a4 01 11 3f
       0.13455248 -0.25037643 -0.0863468 0.5664313
000360 c2 91 11 bd cb ea 81 3e bf 3a 6b 3d f0 72 bb 3e
       -0.035539396 0.25374445 0.05742907 0.36611128
000370 c9 43 bd be 20 b3 a0 3d c9 82 08 be 05 e9 c3 be
       -0.36965778 0.078466654 -0.1333114 -0.38263717
000380 a1 5e bf be e0 10 ec be 2e b0 38 be 43 e6 4a 3e
       -0.37376884 -0.46106625 -0.18035957 0.198144
000390 c7 ff 85 be bc 4b af be 83 37 0c bf 75 5c 25 3f
       -0.26171705 -0.34237468 -0.54772204 0.64594203
0003a0 6e ff ce 3d ef da 06 bd 8b f0 2c 3e f4 f0 cf bd
       0.10107313 -0.032923635 0.16888635 -0.1015338
0003b0 83 20 55 bb 08 75 44 3e a7 08 87 bc 14 11 74 be
       -0.00325206 0.19185269 -0.016483618 -0.2383464
0003c0 64 26 2e 3d 3d 8f ad be eb 73 15 bf ce e6 f6 bd
       0.04251708 -0.33898345 -0.5838 -0.12055741
0003d0 e1 15 ed be ae e1 28 3d 59 de 1e 3e 51 a5 10 bd
       -0.46305755 0.04123085 0.15514506 -0.035313908
0003e0 f2 1c 05 3e 40 cc 0a 3d 16 33 dd bb e0 fe 1b 3d
       0.12999323 0.033886194 -0.0067504747 0.038084865
0003f0 51 6a 94 3d 74 e3 44 3d 9e 74 f4 bd c5 71 04 bd
       0.07246841 0.04806848 -0.119363055 -0.03233506

fc.bias f4 [194]
000000 4e ba f0 be b0 6c cc 3e 21 9c 7b bf f7 2e cd 3e
       -0.4701714 0.39926672 -0.9828511 0.40074894
000010 96 ab 2e 3d 5c 13 b1 3e 65 5f 0e 3e 99 a8 45 3e
       0.042644106 0.34585083 0.13903578 0.19302596
000020 7a 73 89 3e b9 21 66 bf fe 74 b0 3e a3 37 a8 3e
       0.26845914 -0.89895207 0.34464258 0.32854947
000030 53 13 fe bb 80 9d ae 3e b8 43 0b 3f d6 6b 09 3f
       -0.0077537685 0.34104538 0.54400206 0.5368017
000040 4f 5a 80 bf 40 bb 7d bf 97 07 69 be a5 c5 5c bf
       -1.002756 -0.99113846 -0.22756802 -0.8623908
000050 19 df 03 3e 72 53 2c be 30 cc 65 bf 06 d5 e2 3e
       0.12878074 -0.16828707 -0.8976469 0.4430315
000060 40 95 88 bf 14 c5 99 be 95 6e 76 bf 06 05 ab 3e
       -1.0670547 -0.3003317 -0.96262485 0.3340227
000070 c5 7e 35 bf 2c 9c 74 bf df 93 7f bf 82 df 6f bf
       -0.7089656 -0.955508 -0.9983501 -0.9370042
000080 75 8b 84 bf bf 7d 6e bf 79 73 88 bf 02 4d 66 bf
       -1.0355059 -0.93160623 -1.066024 -0.89961255
000090 39 49 5e bf b8 22 83 bf 7e 8a 0a bf 0e e7 8a 3e
       -0.8683048 -1.024497 -0.5411757 0.27129406
0000a0 c0 4c 8e 3e 1d 2b e9 3d 7f d2 74 bf d2 48 11 3d
       0.2779293 0.11385176 -0.9563369 0.035469837
0000b0 81 70 d2 be df 9c 97 3e f9 26 d6 be 14 84 18 bf
       -0.4110146 0.2961187 -0.4182661 -0.59576535
0000c0 34 2c 72 3d b2 96 c7 3d df cd d1 3e 3f ba 7a bf
       0.059124187 0.0974554 0.4097738 -0.9794044
0000d0 aa ab 68 bf bd 3c 7a bf 73 b2 40 3c b0 65 ad 3c
       -0.9088694 -0.9774893 0.011761296 0.021166652
0000e0 de 4c 7f bc 78 a0 66 bf 69 23 5b 3c 1b f6 6b bf
       -0.015582291 -0.90088606 0.013375142 -0.921724
0000f0 f2 ef 80 bf c9 de 87 bf 7f 4a 85 bf 36 9d 87 bf
       -1.0073225 -1.0614864 -1.0413359 -1.0594852
000100 01 a4 6a bf b9 e4 6a bf cf ed 8b be 20 9f 83 bf
       -0.916565 -0.91755253 -0.2732987 -1.0282936
000110 6d 59 9d be ed 55 02 bf 19 2c 86 bf 1e b2 7f bc
       -0.3073229 -0.5091236 -1.0482208 -0.015606431
000120 e4 a3 ca be 80 a3 5e bf 07 23 56 bf 7c 47 60 bf
       -0.39578164 -0.8696823 -0.836472 -0.87609076
000130 69 34 88 bf 94 9c 2c be fe 57 32 be b2 e4 80 bf
       -1.0640994 -0.16856605 -0.17416379 -1.0069792
000140 d3 a6 b1 be 66 13 32 bd e1 fb 82 bf 5a 16 86 bf
       -0.3469759 -0.04347553 -1.0233117 -1.0475571
000150 3e c5 0f be 0a fa 83 bf a5 a1 3c bf ad 34 06 bd
       -0.14040086 -1.0310681 -0.7368415 -0.03276508
000160 b3 86 27 bf 65 e5 6a bf 38 17 07 bf e8 3b e8 be
       -0.6543991 -0.9175628 -0.52769804 -0.45358205
000170 2e 07 7c bf a6 bf 50 bf b8 21 8a be 62 59 b1 bd
       -0.98448455 -0.8154243 -0.2697885 -0.086596265
000180 22 3c ca 3e a1 33 da be db 08 43 be 0a 9f bd 3d
       0.39499003 -0.42617515 -0.19046347 0.0925885
000190 c7 2e 87 be 28 9a 02 bd 91 ba f5 3d 3e f3 38 be
       -0.26402876 -0.031885296 0.11998475 -0.1806154
0001a0 40 a9 bf bc ea 81 85 3e f0 d3 7d bd e6 0e b4 3d
       -0.023396134 0.2607568 -0.061969697 0.08791904
0001b0 72 0f c0 bd 66 e1 d1 3e 21 0a 4e be c5 f8 01 3e
       -0.09377946 0.40992278 -0.20121051 0.12692554
0001c0 f7 4a 81 be 8b 2c d0 be e6 88 9e bd 00 09 c4 3e
       -0.25252506 -0.40658984 -0.07740955 0.38288116
0001d0 d2 83 f4 be 06 5a 10 bf 9b 1a 46 3d f4 b4 c4 3c
       -0.4775682 -0.56387365 0.048365217 0.024012066
0001e0 91 5c 0a 3c 27 a1 2c be 31 62 fe 3d 80 3b 9f be
       0.008444921 -0.1685835 0.12421072 -0.31100082
0001f0 15 32 83 3d f4 89 d2 be 1d e4 a4 be 4f 14 23 be
       0.06406037 -0.41120875 -0.32205287 -0.15925716
000200 59 0d 8e 3d c2 dc 33 be 83 60 46 bd d3 17 ab bd
       0.069361396 -0.17564681 -0.048431884 -0.083541535
000210 bb 86 ec bd c7 a0 b5 be f7 4c 96 bc 6a 42 69 3a
       -0.11549135 -0.35474226 -0.018347247 0.0008898141
000220 fd 13 4e be a6 d2 9b bd 93 cb c4 bd a5 89 62 bd
       -0.20124812 -0.076085374 -0.09609141 -0.05530705
000230 0d 00 09 bf f9 ef 94 be ce 1a 8c be 9d 26 97 be
       -0.535157 -0.29089335 -0.273642 -0.29521647
000240 84 ad 85 3e 5f 79 9a be be bc 2e be 81 ef 06 bf
       0.26108944 -0.30170724 -0.17064187 -0.52709204
000250 4c 38 d1 be 90 52 5f bf 9d 93 4c be 07 ca e8 bd
       -0.40863264 -0.87235355 -0.19978185 -0.11366659
000260 58 b2 17 bf 0a 53 61 3e 59 ee e6 be 6e 09 4a be
       -0.59256506 0.22004333 -0.4510372 -0.1973016
000270 55 5f 5d be 35 1f aa be 65 06 99 bc 4c d0 20 be
       -0.21618398 -0.33226934 -0.018679807 -0.15704459
000280 4d bd 64 bf ed 06 97 3c e9 f4 63 bf 2f 20 01 be
       -0.8935135 0.01843592 -0.8904558 -0.12609933
000290 70 83 6e be 71 30 07 bf dc 11 8c 3d 2c 07 e9 be
       -0.23292327 -0.5280829 0.06839344 -0.45513284
0002a0 35 36 4b be 74 f6 7b bd 09 0a ae be 3a 8b 91 be
       -0.19844897 -0.061514333 -0.3399203 -0.28426534
0002b0 f6 1f 7b be 67 5e 2f bf 77 11 f1 be 71 75 08 bf
       -0.24523911 -0.6850342 -0.47083637 -0.533042
0002c0 11 c0 ec be b7 f2 7d bf 2e e1 b9 bd 9c df 2c bf
       -0.46240285 -0.9919848 -0.09076153 -0.675287
0002d0 02 b1 d5 be 29 10 81 bf f8 c8 94 be 05 66 1c bf
       -0.4173661 -1.0083057 -0.29059577 -0.6109317
0002e0 5e de a1 bc 44 27 20 bf c7 b5 70 bf ba c6 7c bf
       -0.019759353 -0.62559915 -0.9402737 -0.9874073
0002f0 0f 7b 69 bf 35 7f 53 bf 97 25 f5 be af b3 85 bf
       -0.912034 -0.8261598 -0.4788024 -1.044546
000300 a7 13 11 bf 75 fb 10 bf
       -0.5667061 -0.5663369
