notebooks/modelo_rnn.pth (torch, 103269 bytes, 7 tensors)

embed.weight f4 [194, 32]
-0.53398657 -0.5931625 -0.06703695 2.729984 -1.0751047 -1.1275425 0.98363143 0.16594233
0.48899198 0.100514576 -0.60837376 1.0422014 -0.11908221 -0.5660442 0.04658962 0.3306516
0.51785463 1.9600296 -0.052846186 1.0340759 -0.27968997 -1.0922666 -2.753513 1.045397
-2.3437264 -1.8131237 -0.8507284 -2.342597 0.8063753 -1.4975264 1.126876 -0.23864833
-0.6297866 -0.84969276 -0.74739903 0.69983804 0.22626804 -0.21672839 0.34191388 0.10932824
0.37024516 -0.16794091 1.1085457 -0.5535051 -1.7412924 0.15162465 0.865114 0.49437013
-0.49209002 -0.23307629 0.63342565 0.30389643 0.055644028 0.24865586 -0.49365944 -0.05951924
0.57721984 -0.4438579 -0.40671724 -0.5953494 1.254338 0.32408512 -2.4659047 0.542489
0.017187597 -0.74953765 0.8732341 1.2107744 0.76913416 -1.3932462 -0.9195902 0.8075895
-0.7293582 -1.4089196 -0.09300055 0.669279 0.2570084 0.2617787 -2.6631608 -0.70565
-0.39343578 -0.26377112 1.1448097 0.49826887 0.1761976 -0.44511518 0.5407642 0.7423393
-0.14215356 0.21733288 -0.76683164 -0.6059135 0.3586311 0.6536653 0.50595516 0.47517794
2.1182911 0.016375242 -1.0052232 1.2850682 0.649354 0.98002774 -0.38604525 -1.8916813
-0.6499903 -1.5561328 -0.10840746 0.7690784 -0.8696886 -1.3569502 -0.7212218 0.42911035
3.0027068 -1.6961106 1.465582 0.688234 -0.42022076 -1.0153928 0.101237364 1.7986867
1.0562838 0.7302949 -1.129821 0.5146061 -0.9390829 1.431447 0.6901989 0.41844153
0.21754667 1.5317101 1.0588355 1.6842664 0.75763625 1.7640036 -0.38051757 -0.8953248
0.70797825 -0.9235759 -0.12597968 0.7390836 -0.5459116 1.083118 -0.6227799 -0.17625779
-1.0135589 0.5310287 0.66918844 -2.4300008 -0.38366106 0.04521317 -1.1435045 -0.6909774
0.7480918 -0.65766394 -0.8490645 1.6465608 -2.671699 1.1430321 2.226608 1.1072197
0.096806854 -0.035886504 -2.6238096 -0.7955881 -1.0997837 0.3948805 -0.4941464 0.59007627
-3.0856826 1.1222322 0.8198649 0.40932998 0.18111576 0.93282336 0.39633062 -2.3075745
-0.16000473 -0.55877554 -0.86524403 0.27752876 -0.4555648 -0.5311162 -1.6264437 -0.18161729
2.1461601 -0.14617905 -1.8865112 -1.0267503 -0.10037442 0.044661812 -1.073548 -1.1521081
-0.036575258 0.20491384 -0.7002408 -1.3627241 -0.42180488 0.3739023 -0.14390694 -0.26605713
0.8762905 0.69187105 -2.0559914 -2.276111 -0.8548222 -3.2762847 0.5355128 -0.030148355
2.6041715 0.83553183 -1.4905596 -1.9996569 -1.354314 1.5922428 -1.3872741 -0.3348651
-1.0529753 1.0599222 -2.122526 1.2849537 0.719282 0.17343731 0.21614017 -0.21324468
1.4538014 -0.66764426 -0.89457446 -0.6329616 0.46034232 2.903274 0.0042394456 1.573289
-1.5538974 -1.8477423 1.4087378 -0.43480211 -2.4204743 -0.6576274 0.91332155 -0.13411939
0.8925964 0.30070364 0.6914282 -0.93713695 -0.5886851 -1.930252 -0.64286196 -1.0381124
-1.3116355 -2.4451516 -0.08051479 1.2554017 0.18933037 -1.7463095 -0.861394 0.48073983
00000000: 58b3 08bf 7fd9 17bf ab4a 89bd 0fb8 2e40
00000010: 089d 89bf 5053 90bf 45cf 7b3f c9ec 293e
00000020: 285d fa3e 96da cd3d 62be 1bbf db66 853f
00000030: 60e1 f3bd 46e8 10bf c2d4 3e3d 2b4b a93e
00000040: 1f92 043f 40e2 fa3f 3e75 58bd 995c 843f
00000050: 8633 8fbe 64cf 8bbf 8f39 30c0 92cf 853f
00000060: 9dff 15c0 7014 e8bf 56c9 59bf 1ced 15c0
00000070: 9d6e 4e3f f2ae bfbf 793d 903f 3a60 74be
00000080: b239 21bf 7785 59bf 8b55 3fbf 9628 333f
00000090: cfb2 673e 0cee 5dbe 560f af3e 7ce7 df3d
000000a0: c690 bd3e b4f8 2bbe d3e4 8d3f 83b2 0dbf
000000b0: abe2 debf 7e43 1b3e 1c78 5d3f 151e fd3e
000000c0: 39f3 fbbe 8dab 6ebe 2f28 223f 5098 9b3e
000000d0: feea 633d a49f 7e3e eec0 fcbe 72ca 73bd
000000e0: aec4 133f 5841 e3be 3e3d d0be d168 18bf
000000f0: 268e a03f 7cee a53e 62d1 1dc0 8fe0 0a3f
00000100: 01cd 8c3c b3e1 3fbf 458c 5f3f a8fa 9a3f
00000110: fae5 443f e455 b2bf 436a 6bbf 2fbe 4e3f
00000120: 38b7 3abf 7a57 b4bf 1377 bebd de55 2b3f
00000130: 9b96 833e dc07 863e 3a71 2ac0 7aa5 34bf
00000140: 6a70 c9be 020d 87be 2089 923f 191d ff3e
00000150: 256d 343e 23e6 e3be 866f 0a3f f309 3e3f
00000160: b490 11be 838c 5e3e 144f 44bf 261d 1bbf
00000170: 7f9e b73e 9c56 273f 4786 013f 864a f33e
00000180: 1592 0740 5f25 863c 27ab 80bf 1d7d a43f
00000190: 103c 263f 19e3 7a3f b9a7 c5be 9d22 f2bf
000001a0: c465 26bf 5c2f c7bf bb04 debd 52e2 443f
000001b0: e9a3 5ebf 8bb0 adbf fea1 38bf 5ab4 db3e
000001c0: 592c 4040 271a d9bf 3198 bb3f 1a30 303f
000001d0: 2d27 d7be 64f8 81bf 8955 cf3d 5e3b e63f
000001e0: 4f34 873f 9bf4 3a3f f99d 90bf 3abd 033f
000001f0: bd67 70bf a839 b73f e0b0 303f f83d d63e
00000200: 8ec4 5e3e 140f c43f ec87 873f 0b96 d73f
00000210: 73f4 413f dfca e13f 33d3 c2be 0234 65bf
00000220: 103e 353f 786f 6cbf d100 01be 9534 3d3f
00000230: ddc0 0bbf 9ca3 8a3f 816e 1fbf ec7c 34be
00000240: 4cbc 81bf 7ff1 073f ef4f 2b3f 2285 1bc0
00000250: 396f c4be 7231 393d 5b5e 92bf e5e3 30bf
00000260: f282 3f3f aa5c 28bf 4b5c 59bf 81c2 d23f
00000270: 1efd 2ac0 e04e 923f bf80 0e40 60b9 8d3f
00000280: ac42 c63d bafd 12bd 7fec 27c0 a9ab 4bbf
00000290: b6c5 8cbf c72d ca3e c200 fdbe 3d0f 173f
000002a0: d37b 45c0 4ea5 8f3f abe2 513f b393 d13e
000002b0: 6976 393e 83cd 6e3f d9eb ca3e 4daf 13c0
000002c0: 48d8 23be ea0b 0fbf a280 5dbf 4018 8e3e
000002d0: ca3f e9be 3bf7 07bf 4f2f d0bf e2f9 39be
000002e0: b05a 0940 f6af 15be 3379 f1bf 8e6c 83bf
000002f0: 1b91 cdbd 4eef 363d 056a 89bf 4778 93bf
00000300: f0cf 15bd efd4 513e fb42 33bf be6d aebf
00000310: cff6 d7be 1f70 bf3e 575c 13be a438 88be
00000320: 9354 603f 761e 313f 5d95 03c0 cdab 11c0
00000330: a1d5 5abf a6ae 51c0 5e17 093f aff9 f6bc
00000340: bfaa 2640 6ae5 553f a8ca bebf c2f4 ffbf
00000350: 295a adbf 9dce cb3f 3392 b1bf 7073 abbe
00000360: e5c7 86bf 88ab 873f 77d7 07c0 5d79 a43f
00000370: dd22 383f 8d99 313e d953 5d3e d05c 5abe
00000380: 2a16 ba3f bcea 2abf d502 65bf c509 22bf
00000390: fdb1 eb3e 3ecf 3940 0ceb 8a3b 8961 c93f
000003a0: 1ce6 c6bf d282 ecbf 8551 b43f 629e debe
000003b0: 0de9 1ac0 455a 28bf 71cf 693f 9856 09be
000003c0: 3381 643f d4f5 993e 7001 313f 35e8 6fbf
000003d0: 11b4 16bf 7f12 f7bf 9a92 24bf dee0 84bf
000003e0: ace3 a7bf 5d7d 1cc0 f0e4 a4bd 01b1 a03f
000003f0: d2df 413e 1287 dfbf 5184 5cbf 8823 f63e

rnn.weight_ih_l0 f4 [64, 32]
0.3076347 0.1253059 0.0017347934 -0.12083874 0.25919688 -0.13528222 0.07871603 0.28198996
-0.3017819 0.45583716 -0.19524185 -0.48617154 0.8265898 0.11525166 -0.07873485 -0.6016042
0.19036074 -0.0077454797 0.13193016 0.20722935 0.08336557 -1.143449 0.102854736 0.4584178
0.7103517 0.39943415 0.03153765 0.3653173 -0.4668686 -0.021361323 -0.2643838 0.46258494
-0.4412507 -0.53245264 0.6636971 0.2617561 -0.69189376 0.3904076 0.40765882 -0.011326931
0.56174874 -0.15737931 0.032063354 -0.029148165 -0.06660703 0.46253195 0.29546213 0.08725978
-0.103063576 0.042595852 -0.055891432 -0.4765534 -0.28392768 0.5172777 0.09267938 -0.2316365
-0.22246195 0.13055943 -0.46684694 -0.1925823 0.98342645 -0.25287333 -0.44591865 0.4779422
0.18634062 0.68848467 0.23254095 0.40895537 -0.21930586 -0.1590843 0.36866122 -0.6922711
-0.33463353 -0.933981 -0.14023328 0.62520236 0.16634421 -0.32742828 -0.1548655 0.35777792
-0.3543174 -0.08655184 -0.3201604 0.2315678 0.40056556 -0.26464888 0.24660635 0.2592257
0.49130937 0.09727205 0.20547014 -0.06955882 -0.056410994 -0.98401415 0.054484073 -0.30250978
0.22381166 -0.17023443 -0.18095717 -0.50066787 -0.3202813 0.02222195 -0.2579322 0.4377687
0.62614405 -0.030435687 -0.34609446 0.2926222 -0.25187156 0.06637239 -0.3200265 -0.45420012
0.09066314 0.21679819 -0.64414525 0.46120286 -0.29676703 -0.11642923 0.17489906 -1.2430589
-0.04016545 -0.41267017 -0.6268293 -0.18538323 -0.24761707 0.0979307 0.06497745 -0.3683488
-0.07170243 0.25202093 0.14669342 -0.41256547 -0.37779742 -0.12315736 -0.29604965 0.1230726
0.41534093 0.33633706 0.095788345 0.24381402 0.3929962 0.23437135 -0.033220384 0.203519
-0.31404746 0.044738695 0.07906524 0.026472226 -0.42517096 -0.099037826 0.264618 -0.07114706
0.3062647 0.45150155 0.19917981 -0.09478163 0.54898334 0.4570766 0.107297584 -0.30565166
-0.4720956 -0.028983658 0.2735333 0.27965757 0.06540964 0.0752928 0.43158117 -0.27104676
-0.17686659 -0.39673617 -0.3629066 -0.9988547 0.32416642 -0.2104927 0.33048728 0.3213309
-0.14191566 0.20843686 -0.10432042 0.10823171 0.9582239 0.4713955 -0.6632113 -0.30800062
0.12752894 -0.31014565 -0.1271878 -0.5970836 -0.13284555 -0.28696096 0.029456608 0.3891721
-0.7679437 -0.31748015 0.14135736 -0.2538461 -0.24334523 0.52964586 -0.37054238 -0.11482432
-0.33552346 -0.324461 0.36824015 -0.28858542 0.12850142 0.1487942 -0.17196335 -0.76225483
-0.5162598 0.743957 0.29412985 -0.4094648 -0.12484945 0.64395654 0.22280426 -0.08269069
0.35198155 -0.7242799 0.14604168 0.26401156 -0.12317338 -0.035934165 0.08405394 0.7204422
0.13369355 0.1892216 -0.20966803 -0.29922104 0.022304706 -0.3672381 0.09929139 -0.28706288
0.6258697 0.79996794 0.41878602 -0.72224015 0.2116906 -0.26498273 -0.1476072 -0.26908547
-0.44509485 -0.074703865 0.46172735 -0.08452164 -0.57793397 0.5420185 0.28080237 0.22467834
-0.067963146 -0.28204224 0.1363792 0.0053848354 -0.32298362 0.8747829 -0.20999674 -0.15455557
00000000: 4c82 9d3e 3150 003e 0262 e33a 4d7a f7bd
00000010: 74b5 843e 6c87 0abe df35 a13d fd60 903e
00000020: 2883 9abe 7d63 e93e 7bed 47be 7aeb f8be
00000030: 649b 533f 1009 ec3d bd3f a1bd bc02 1abf
00000040: eded 423e cbcd fdbb b318 073e ee33 543e
00000050: 91bb aa3d 895c 92bf 81a5 d23d bdb5 ea3e
00000060: 9cd9 353f a282 cc3e 9f2d 013d df0a bb3e
00000070: 6709 efbe f1fd aebc 505d 87be efd7 ec3e
00000080: 9deb e1be d14e 08bf 0ee8 293f e504 863e
00000090: f31f 31bf 81e3 c73e a8b8 d03e 9894 39bc
000000a0: c4ce 0f3f 0b28 21be dd54 033d 22c8 eebc
000000b0: 4469 88bd fdd0 ec3e d046 973e 41b5 b23d
000000c0: ff12 d3bd fd78 2e3d 6aee 64bd cffe f3be
000000d0: f85e 91be 506c 043f b0ce bd3d 1e32 6dbe
000000e0: 11cd 63be 5fb1 053e 9006 efbe 4b34 45be
000000f0: d6c1 7b3f 9d78 81be 734f e4be d7b4 f43e
00000100: 13d0 3e3e 8840 303f 371f 6e3e 9962 d13e
00000110: b791 60be ffe6 22be 2ac1 bc3e ae38 31bf
00000120: 1655 abbe 6119 6fbf 5099 0fbe 430d 203f
00000130: 2356 2a3e aea4 a7be 1095 1ebe ab2e b73e
00000140: 1769 b5be 1742 b1bd 10ec a3be 1c20 6d3e
00000150: ee16 cd3e 0f80 87be 6086 7c3e 3bb9 843e
00000160: e78c fb3e 9236 c73d c466 523e db74 8ebd
00000170: 370f 67bd 5ae8 7bbf b12a 5f3d 90e2 9abe
00000180: e22e 653e ef51 2ebe d64c 39be c52b 00bf
00000190: e9fb a3be cf0a b63c b00f 84be 3823 e03e
000001a0: fa4a 203f 4354 f9bc 4b33 b1be 94d2 953e
000001b0: 4ff5 80be 3fee 873d 83da a3be eb8c e8be
000001c0: 99ad b93d 5800 5e3e b4e6 24bf c822 ec3e
000001d0: d9f1 97be 7372 eebd bd18 333e 8e1c 9fbf
000001e0: 8784 24bd 8149 d3be e377 20bf 1ad5 3dbe
000001f0: 548f 7dbe e48f c83d e612 853d 3798 bcbe
00000200: b9d8 92bd e308 813e cd36 163e c83b d3be
00000210: aa6e c1be ed39 fcbd d293 97be 7d0d fc3d
00000220: 91a7 d43e 5f34 ac3e ae2c c43d 62aa 793e
00000230: cc36 c93e 0bff 6f3e 1912 08bd 4967 503e
00000240: d4ca a0be ec3f 373d f5ec a13d 48dc d83c
00000250: 02b0 d9be 58d4 cabd 037c 873e 8db5 91bd
00000260: bace 9c3e 362b e73e cbf5 4b3e df1c c2bd
00000270: 2c8a 0c3f f205 ea3e d6be db3d 607e 9cbe
00000280: 84b6 f1be 236f edbc 8f0c 8c3e 472f 8f3e
00000290: 7df5 853d 1d33 9a3d 35f8 dc3e a4c6 8abe
000002a0: 841c 35be 0121 cbbe e5ce b9be f1b4 7fbf
000002b0: 24f9 a53e 668b 57be a135 a93e 7c85 a43e
000002c0: 5752 11be 7970 553e f2a5 d5bd 96a8 dd3d
000002d0: 294e 753f c05a f13e 37c8 29bf 42b2 9dbe
000002e0: f296 023e 69cb 9ebe 853d 02be 79da 18bf
000002f0: aa08 08be 8cec 92be fc4e f13c 9141 c73e
00000300: f597 44bf c28c a2be fcbf 103e 1ef8 81be
00000310: 7e2f 79be df96 073f bbb7 bdbe 0329 ebbd
00000320: bbc9 abbe c11f a6be f989 bc3e 78c1 93be
00000330: e095 033e 825d 183e 2917 30be 2223 43bf
00000340: 9a29 04bf f773 3e3f 3098 963e 5fa5 d1be
00000350: 12b1 ffbd 56da 243f cd26 643e bd59 a9bd
00000360: ed36 b43e 686a 39bf f38b 153e 862c 873e
00000370: 5342 fcbd b42f 13bd 7924 ac3d e66e 383f
00000380: f6e6 083e 4fc3 413e 37b3 56be 8033 99be
00000390: 5cb8 b63c a206 bcbe 4959 cb3d e8f9 92be
000003a0: ff38 203f b3ca 4c3f 1f6b d63e bbe4 38bf
000003b0: 6cc5 583e d1ab 87be 5826 17be 92c5 89be
000003c0: 79e3 e3be 57fe 98bd 8767 ec3e ae19 adbd
000003d0: 7bf3 13bf b9c1 0a3f 54c5 8f3e 1412 663e
000003e0: 4330 8bbd d767 90be fda6 0b3e 4673 b03b
000003f0: 1c5e a5be c6f1 5f3f 6309 57be d143 1ebe

rnn.weight_hh_l0 f4 [64, 64]
-0.5441966 0.326275 0.10832597 0.29518527 -0.15934074 -0.056995038 0.22845587 -0.26140627
-0.040893137 0.11200521 0.11670667 0.12899084 0.11345057 0.365726 -0.35015368 -0.07930088
-0.18533845 0.24181518 0.08625379 0.40238234 -0.032180157 -0.16350543 -0.25606188 0.21365355
-0.33048397 -0.1795116 -0.34737486 -0.1518488 0.2975243 -0.054743577 -0.33974424 0.30204898
0.038853522 0.22351404 0.35012275 -0.03463754 -0.40091148 -0.15201582 0.502332 0.36333695
-0.10724299 0.14884679 0.11925495 0.28796938 0.0044075046 -0.27436274 -0.06154708 -0.093679465
0.09697394 -0.40673977 0.15666461 -0.025790166 -0.3383414 0.45822895 0.0011097962 -0.38367286
0.44370285 -0.5384934 0.44995984 0.1537596 0.17078596 0.33657655 0.15871124 0.19908571
0.2522625 0.17730322 -0.16770433 0.2809044 -0.07793213 -0.5360863 0.42491347 0.4407044
-0.012771427 -0.2051332 -0.05699921 -0.047539752 0.5219629 -0.34798273 -0.19278869 -0.21652526
0.6197662 0.07823146 -0.28741258 0.138577 -0.23317951 0.4457779 -0.06032013 0.110964715
0.21061042 -0.32948157 0.08429523 0.24246873 -0.037035495 0.31069392 0.15855418 0.42071536
0.16143899 -0.11823708 -0.2796935 0.11993469 -0.12056989 -0.06973314 -0.073529385 0.10242141
-0.10204634 0.3833918 -0.12986252 -0.09621281 -0.23823084 0.20904216 0.059137065 -0.1901999
0.23536184 -0.91450363 0.17587432 -0.0180881 0.11194038 0.38623834 0.47896177 -0.20673612
0.42711952 -0.07281382 0.02193094 0.18328947 -0.18471555 0.24586003 0.00060676725 0.026240876
0.750079 0.2115976 -0.42737857 -0.009786218 0.24581541 0.31341904 0.21741594 -0.23988762
0.38795102 0.03335136 0.107750945 0.39943725 0.28795424 -0.3945339 -0.55129564 -0.39824927
0.28323364 -0.04901322 0.339409 0.045115244 -0.040495418 -0.17647374 -0.14050245 0.45392567
0.03391627 -0.008935155 -0.14268003 0.35923302 -0.052714787 0.02776832 0.0023959156 -0.17941746
0.45712036 0.085037656 -0.24391645 0.1620322 0.13593823 0.34059024 0.06312169 -0.21848261
0.22822177 0.063104406 0.12377516 -0.050988015 0.087204 0.09199183 -0.21117784 -0.8205141
-0.06726035 0.17017931 0.062955014 0.5118429 -0.18671925 -0.07298912 0.48310804 0.27149662
-0.21204154 -0.06137933 -0.055509508 0.33589384 0.2530965 0.36309978 1.0150986 -0.20765224
-0.032484032 -0.1365641 -0.19777776 -0.15445703 -0.43231297 -0.41568136 -0.20917512 -0.3086555
-0.3465012 -0.014489089 0.05647573 0.014884893 0.26465404 0.4424736 -0.72723836 0.47718906
-0.14996593 -0.25616714 0.12559924 -0.0016991685 0.14446056 -0.61240417 0.14275755 -0.15712899
-0.5302799 -0.0049542836 -0.04867804 0.21781783 0.4991669 0.19226296 -0.15597816 0.2950383
0.15474863 0.053667944 0.019781955 -0.003513636 -0.21946545 -0.24040847 -0.07898729 0.9387565
-0.22992079 0.52841127 0.018578522 -0.13755772 0.17837493 0.23385082 0.22953236 0.11829017
0.3092456 -0.17898081 0.106387146 0.17484836 -0.084860876 0.21810177 -0.014884986 -0.32270005
-0.0102791935 -0.4913096 -0.46698773 0.40981156 0.318163 0.20265202 -0.03354813 -0.12021975
00000000: 7850 0bbf 840d a73e 02da dd3d 8622 973e
00000010: 382a 23be a173 69bd 56f0 693e 0bd7 85be
00000020: 907f 27bd fd62 e53d e803 ef3d 2d16 043e
00000030: c658 e83d 7040 bb3e 5847 b3be 8068 a2bd
00000040: 5dc9 3dbe 669e 773e d4a5 b03d 0f05 ce3e
00000050: 57cf 03bd f86d 27be 8b1a 83be ffc7 5a3e
00000060: 3235 a9be e4d1 37be 1edb b1be 407e 1bbe
00000070: 1b55 983e cd3a 60bd f5f2 adbe 2aa6 9a3e
00000080: df24 1f3d dde0 643e 4a43 b33e 18e0 0dbd
00000090: 4544 cdbe 09aa 1bbe d498 003f 4d07 ba3e
000000a0: 36a2 dbbd 4b6b 183e f03b f43d b970 933e
000000b0: d46c 903b 4679 8cbe ca18 7cbd 05db bfbd
000000c0: 469a c63d 3240 d0be b06c 203e e645 d3bc
000000d0: 153b adbe fc9c ea3e 9576 913a c570 c4be
000000e0: 052d e33e b4da 09bf 2361 e63e 2873 1d3e
000000f0: 84e2 2e3e c353 ac3e 3385 223e 20dd 4b3e
00000100: 8d28 813e fa8e 353e afba 2bbe b4d2 8f3e
00000110: e19a 9fbd f43c 09bf 428e d93e 02a4 e13e
00000120: 3f3f 51bc 700e 52be 0178 69bd 0bb9 42bd
00000130: 5c9f 053f cb2a b2be 666a 45be ccb8 5dbe
00000140: ffa8 1e3f d137 a03d be27 93be 21e7 0d3e
00000150: 9cc6 6ebe 003d e43e 3e12 77bd 7841 e33d
00000160: 42aa 573e cfb1 a8be faa2 ac3d b949 783e
00000170: 88b2 17bd 4613 9f3e 075c 223e 0168 d73e
00000180: 4350 253e 4826 f2bd fd33 8fbe 52a0 f53d
00000190: 59ed f6bd 40d0 8ebd 9396 96bd 51c2 d13d
000001a0: acfd d0bd ee4b c43e aefa 04be 390b c5bd
000001b0: c9f2 73be 260f 563e b539 723d c3c3 42be
000001c0: b202 713e e91c 6abf 6618 343e 7f2d 94bc
000001d0: ff40 e53d 08c1 c53e 7a3a f53e a2b2 53be
000001e0: 69af da3e 691f 95bd 84a8 b33c 3cb0 3b3e
000001f0: 1326 3dbe bbc2 7b3e 760f 1f3a 1bf7 d63c
00000200: 2d05 403f 0bad 583e 5dd1 dabe 6056 20bc
00000210: 09b7 7b3e 7678 a03e 49a2 5e3e 1aa5 75be
00000220: 84a1 c63e 709b 083d 87ac dc3d 0a83 cc3e
00000230: bd6e 933e 5900 cabe b621 0dbf 54e7 cbbe
00000240: 0004 913e 16c2 48bd 04c7 ad3e c3ca 383d
00000250: 86de 25bd 88b5 34be e0df 0fbe f268 e83e
00000260: c9eb 0a3d c264 12bc b71a 12be 64ed b73e
00000270: 76eb 57bd 637a e33c cb04 1d3b 36b9 37be
00000280: ae0b ea3e 3928 ae3d 3cc5 79be c5eb 253e
00000290: 6433 0b3e d861 ae3e f245 813d e8b9 5fbe
000002a0: f8b2 693e e23c 813d d57d fd3d cfd8 50bd
000002b0: 0398 b23d 3666 bc3d 013f 58be 360d 52bf
000002c0: cbbf 89bd 7c43 2e3e 8fee 803d 2308 033f
000002d0: 5533 3fbe 527b 95bd f059 f73e 9b01 8b3e
000002e0: 6b21 59be e468 7bbd f05d 63bd 47fa ab3e
000002f0: dd95 813e 37e8 b93e c0ee 813f caa2 54be
00000300: fa0d 05bd 76d7 0bbe 4186 4abe fc29 1ebe
00000310: 2058 ddbe 30d4 d4be 0132 56be 1808 9ebe
00000320: 9b68 b1be a563 6dbc 1853 673d c4df 733c
00000330: bc80 873e e68b e23e 4b2c 3abf 2052 f43e
00000340: ab90 19be 5728 83be 169d 003e a2b6 deba
00000350: 78ed 133e 85c6 1cbf 092f 123e 6ce6 20be
00000360: 6cc0 07bf 8b57 a2bb a062 47bd a30b 5f3e
00000370: ce92 ff3e 95e0 443e bdb8 1fbe 430f 973e
00000380: 6d76 1e3e ebd2 5b3d c40d a23c 0845 66bb
00000390: 8dbb 60be a32d 76be 17c4 a1bd 5952 703f
000003a0: 5b70 6bbe f645 073f fc31 983c eedb 0cbe
000003b0: eba7 363e 9776 6f3e 880a 6b3e 1e42 f23d
000003c0: 7055 9e3e bf46 37be 81e1 d93d 730b 333e
000003d0: 8acb adbd 1256 5f3e 28e0 73bc f138 a5be
000003e0: 106a 28bc ef8c fbbe 0419 efbe d2d2 d13e
000003f0: 43e6 a23e 0384 4f3e c469 09bd c635 f6bd

rnn.bias_ih_l0 f4 [64]
-0.21163338 0.15565775 -0.27909064 0.47478145 0.44678277 -0.15848444 -0.4682 0.18686807
0.13439977 0.32768655 -0.51900184 0.16070889 0.05219616 -0.02757398 0.13445026 -0.23925015
-0.48534876 -0.36322713 -0.09678992 -0.15446031 -0.26313293 0.47589824 0.37933993 0.048873797
-0.5869334 -0.038924754 0.1464931 -0.2602453 0.09280715 0.10159915 -0.29267782 -0.08516588
-0.57776874 0.2333058 -0.057057083 0.09535846 -0.26281953 0.5039997 0.0039804755 0.093727075
-0.008988908 -0.007340874 -0.3798532 -0.3287718 -0.46561292 0.42556697 -0.17852464 0.022717055
-0.22072701 -0.49484202 0.19353999 -0.43397853 -0.20806706 0.018703915 -0.28692663 -0.69384754
-0.6377014 -0.1388808 -0.0631068 0.4036532 -0.22876753 0.07328711 0.2881993 0.09864531
00000000: 6cb6 58be bf64 1f3e f8e4 8ebe 8e16 f33e
00000010: b6c0 e43e bf49 22be e9b7 efbe 585a 3f3e
00000020: 18a0 093e 88c6 a73e 4edd 04bf df90 243e
00000030: a4cb 553d d4e2 e1bc 54ad 093e fefd 74be
00000040: a27f f8be e8f8 b9be cb39 c6bd d82a 1ebe
00000050: 5cb9 86be efa8 f33e d838 c23e e42f 483d
00000060: 4441 16bf 906f 1fbd 4a02 163e df3e 85be
00000070: ad11 be3d 3713 d03d ded9 95be 736b aebd
00000080: a7e8 13bf b7e7 6e3e b0b4 69bd 4c4b c33d
00000090: 4890 86be 2006 013f a66e 823b fbf3 bf3d
000000a0: 3646 13bc b78b f0bb 1e7c c2be c754 a8be
000000b0: d164 eebe eae3 d93e 2acf 36be 1e19 ba3c
000000c0: 4306 62be ef5b fdbe 592f 463e 6f32 debe
000000d0: 880f 55be f438 993c 0ce8 92be fe9f 31bf
000000e0: 6640 23bf c536 0ebe 233e 81bd a2ab ce3e
000000f0: 0942 6abe 8d17 963d dc8e 933e 8d06 ca3d

rnn.bias_hh_l0 f4 [64]
-0.048948277 0.12341493 -0.3337379 0.34706503 0.35329643 -0.09885464 -0.6339689 0.37520182
0.25380018 0.46810338 -0.5688617 0.093309954 -0.13395436 0.026038982 0.12977171 -0.2743728
-0.5457607 -0.39133063 -0.089524634 -0.12135225 -0.3328766 0.3874109 0.4615432 0.28805864
-0.5729856 -0.25390422 0.07206388 -0.20355734 -0.1281785 0.1609094 -0.36650664 0.07873113
-0.6137362 0.11730669 -0.09800093 -0.00964167 -0.22709796 0.45005313 -0.03962914 -0.03853665
0.13337861 0.1821802 -0.44349247 -0.40537286 -0.3186293 0.37450582 -0.0746765 -0.07524687
-0.33913836 -0.40565217 0.03736167 -0.44614178 -0.05810875 -0.030117441 -0.4501708 -0.6010173
-0.79885274 0.05402659 -0.0387543 0.40694192 -0.33398044 0.19426231 0.37442392 -0.113522016
00000000: fd7d 48bd f8c0 fc3d b2df aabe 82b2 b13e
00000010: 45e3 b43e 4d74 cabd c94b 22bf 741a c03e
00000020: 19f2 813e 3fab ef3e eca0 11bf 4a19 bf3d
00000030: 552b 09be b44f d53c e0e2 043e 977a 8cbe
00000040: f9b6 0bbf 7d5c c8be b158 b7bd 8787 f8bd
00000050: cd6e aabe b95a c63e 644f ec3e 6c7c 933e
00000060: 2faf 12bf bcff 81be 3a96 933d 5671 50be
00000070: 3a41 03be 6fc5 243e c2a6 bbbe c93d a13d
00000080: d11d 1dbf 7d3e f03d b6b4 c8bd 18f8 1dbc
00000090: 5e8c 68be 5d6d e63e 2a52 22bd 9bd8 1dbd
000000a0: 6794 083e 728d 3a3e 7211 e3be 088d cfbe
000000b0: 6123 a3be 3abf bf3e feef 98bd 081b 9abd
000000c0: 8ba3 adbe a4b1 cfbe 8d08 193d b26c e4be
000000d0: 7103 6ebd dab8 f6bc c97c e6be 45dc 19bf
000000e0: 9d81 4cbf fc4a 5d3d d4bc 1ebd b15a d03e
000000f0: 7cff aabe b3ec 463e 7eb4 bf3e 3b7e e8bd

fc.weight f4 [194, 64]
-0.38913882 0.10717129 0.1405605 -0.4090123 0.2496324 -0.31181377 -0.046188176 0.32346296
-0.22574674 0.11388013 0.016760463 -0.031814516 0.28627366 0.21422975 -0.3964641 0.35398188
-0.12695022 0.5699583 0.10340439 0.17082198 -0.15403883 0.26677498 -0.09280329 0.14404957
0.13734291 0.63585603 -0.22935417 0.04339757 0.3285863 -0.20880054 -0.21900934 0.5402569
0.09207261 -0.326569 -0.22224829 -0.58962333 -0.109948374 0.21675831 -0.72311693 -0.37447864
0.404681 -0.22924645 -0.18175639 0.17689113 0.41524103 -0.091231436 -0.32403496 -0.2975107
0.13533966 0.010905205 -0.0024999448 -0.07291854 -0.08351713 0.43993157 0.13977996 0.13588871
-0.22326279 0.26060548 0.13826108 0.19247928 -0.08329646 -0.1930429 0.17033602 0.07842764
-0.30279386 0.00022492383 0.59456676 -0.081263274 0.26986405 0.39843982 -0.30237922 -0.43479714
0.74930835 0.3445119 0.021214986 -0.39232275 0.15377696 -0.037824553 0.18325645 -0.4564756
-0.26258633 -0.3271459 -0.7670142 -0.2836393 -0.33182335 0.48274973 0.38386106 -0.2319093
-0.36243945 0.5564674 0.3792271 -0.14469261 0.28433046 0.05827174 -0.18747154 0.0967604
0.36602783 0.46764827 -0.10623997 -0.4903579 -0.1251246 0.3274501 -0.3830295 0.26439288
0.026302295 -0.19746986 -0.20109034 -0.83200324 -0.44965026 0.24748832 -0.5449313 0.57925725
-0.47428304 -0.18112913 0.13599591 -0.24715419 0.7320197 0.21152893 -0.22343192 0.07724755
0.47375822 -0.62976927 0.07030942 0.5920367 0.3228202 -0.3417953 0.41992837 -0.40771997
0.082168736 0.08024334 0.2547977 -0.4974894 -0.3929642 -0.030912858 0.7615291 -0.2585293
-0.3131133 -0.5273521 0.6059113 -0.36377075 0.10066787 -0.068168804 -0.157113 0.30448338
0.5359739 0.39003888 -0.29399613 0.6451128 0.18100794 -0.4642674 -0.7974353 -0.39738807
0.35803413 -0.11432842 -0.16622755 0.025795897 0.2934281 -0.16958453 0.47301888 -0.19383828
0.60204095 -0.047824707 0.24483454 0.107750714 0.32622597 -0.5042568 -0.2436698 0.008565165
0.04999252 -0.23531172 0.37026104 0.25959575 0.41400307 0.044120744 -0.24476747 0.1777244
0.3778711 0.32377076 -0.091763996 0.54335207 0.53319544 0.026556881 0.46925628 0.76193625
0.33201224 0.20758273 -0.28408843 -0.44176078 0.49003243 -0.37615874 -0.35975125 -0.21195354
0.10497765 -0.0027438027 0.018910151 0.32938933 0.13530292 -0.5068331 0.13335195 -0.32220685
0.20593789 0.33112368 -0.3658153 -0.0068694814 0.23461455 0.557905 0.14542764 -0.043283563
-0.13357794 0.25761342 0.11807203 -0.520466 0.23654656 -0.33352482 0.023297602 0.49391705
0.05004333 0.2600052 0.014455879 0.27482012 -0.33261698 0.08614264 -0.27814797 -0.24999289
-0.31936172 -0.33752328 -0.2603488 0.082815714 -0.18788978 -0.28474426 -0.519085 0.5774921
0.11018961 0.04223636 0.2812989 -0.17416674 -0.066419676 0.2113397 0.043518506 -0.2905989
0.058330644 -0.24708535 -0.5997451 -0.28100997 -0.427291 0.0954312 0.24020763 -0.037434086
0.09340417 0.024611529 -0.16939652 0.12921207 -0.009192466 0.08887648 -0.108502455 -0.04633134
00000000: 343d c7be 9f7c db3d 17ef 0f3e 0f6a d1be
00000010: a39f 7f3e 0ea6 9fbe d02f 3dbd f09c a53e
00000020: 272a 67be fc39 e93d 3d4d 893c f04f 02bd
00000030: 7692 923e 0b5f 5b3e 58fd cabe 1d3d b53e
00000040: 3dff 01be cae8 113f aec5 d33d f5eb 2e3e
00000050: 5bbc 1dbe bb96 883e a70f bebd bb81 133e
00000060: 9fa3 0c3e 76c7 223f d2db 6abe a6c1 313d
00000070: 773c a83e cfcf 55be fc43 60be 474e 0a3f
00000080: 9190 bc3d 0d34 a7be 0e95 63be 8ef1 16bf
00000090: 9d2c e1bd e4f5 5d3e 311e 39bf aabb bfbe
000000a0: 5932 cf3e 95bf 6abe 591e 3abe f322 353e
000000b0: 799a d43e 8cd7 babd e9e7 a5be 5353 98be
000000c0: 7b96 0a3e bfab 323c 1dd6 23bb 5156 95bd
000000d0: 070b abbd b63e e13e 7a22 0f3e 6926 0b3e
000000e0: 009f 64be 156e 853e 5094 0d3e 4a19 453e
000000f0: 5697 aabd 0aad 45be 916c 2e3e ac9e a03d
00000100: cc07 9bbe 88d9 6b39 8735 183f 5c6d a6bd
00000110: 9f2b 8a3e 4e00 cc3e 73d1 9abe bb9d debe
00000120: acd2 3f3f dd63 b03e 0dcb ad3c 87de c8be
00000130: b577 1d3e ebed 1abd 94a7 3b3e 2bb7 e9be
00000140: b771 86be ab7f a7be 0b5b 44bf 2c39 91be
00000150: c0e4 a9be f92a f73e 7089 c43e a279 6dbe
00000160: aa91 b9be a674 0e3f 0e2a c23e 4d2a 14be
00000170: c393 913e 59ae 6e3d 8af8 3fbe 512a c63d
00000180: 0068 bb3e 986f ef3e 5794 d9bd 3110 fbbe
00000190: aa20 00be 8aa7 a73e 711c c4be 815e 873e
000001a0: e977 d73c 8a35 4abe a0ea 4dbe 2afe 54bf
000001b0: 8f38 e6be 946d 7d3e 9e80 0bbf 344a 143f
000001c0: 3ad5 f2be ea79 39be 8342 0b3e fd15 7dbe
000001d0: a565 3b3f 0a9b 583e 56cb 64be f733 9e3d
000001e0: 7090 f23e 8f38 21bf 63fe 8f3d b88f 173f
000001f0: b048 a53e cbff aebe da00 d73e acc0 d0be
00000200: 1548 a83d 9f56 a43d d874 823e eeb6 febe
00000210: 9b32 c9be f63c fdbc 92f3 423f f45d 84be
00000220: 6350 a0be 8c00 07bf 011d 1b3f 2940 babe
00000230: f52a ce3d 169c 8bbd 3be2 20be 3fe5 9b3e
00000240: 9635 093f 2db3 c73e a986 96be 1d26 253f
00000250: 255a 393e 75b4 edbe b824 4cbf 7376 cbbe
00000260: 4050 b73e 0525 eabd 8e37 2abe eb51 d33c
00000270: 353c 963e 91a7 2dbe 882f f23e 8b7d 46be
00000280: 5b1f 1a3f d7e3 43bd e8b5 7a3e 68ac dc3d
00000290: 1707 a73e f916 01bf 9384 79be e854 0c3c
000002a0: f5c4 4c3d 8ef5 70be db92 bd3e bce9 843e
000002b0: 36f8 d33e f4b7 343d 53a4 7abe 63fd 353e
000002c0: 5278 c13e 48c5 a53e c3ee bbbd 1f19 0b3f
000002d0: 7f7f 083f d18d d93c 5c42 f03e 410e 433f
000002e0: 82fd a93e 9190 543e 0a74 91be 782e e2be
000002f0: 88e5 fa3e e197 c0be 5131 b8be 590a 59be
00000300: 86fe d63d 5fd1 33bb 76e9 9a3c b8a5 a83e
00000310: d98c 0a3e d0bf 01bf 6a8d 083e 4cf8 a4be
00000320: 62e1 523e 0b89 a93e 254c bbbe 6319 e1bb
00000330: cc3e 703e ddd2 0e3f fcea 143e 1b4a 31bd
00000340: a8c8 08be e8e5 833e c0cf f13d 433d 05bf
00000350: 4339 723e c4c3 aabe 9dda be3c b2e2 fc3e
00000360: 3cfa 4c3d 671f 853e 5ad8 6c3c 39b5 8c3e
00000370: c64c aabe 8d6b b03d 6969 8ebe 23fe 7fbe
00000380: 6183 a3be dacf acbe 704c 85be 499b a93d
00000390: 2e66 40be 00ca 91be c1e2 04bf 86d6 133f
000003a0: 17ab e13d 0900 2d3d 6906 903e c458 32be
000003b0: 0a07 88bd 6f69 583e 7640 323d 61c9 94be
000003c0: 1dec 6e3d f103 7dbe e588 19bf 8ae0 8fbe
000003d0: e3c5 dabe 6f71 c33d fdf8 753e 7c54 19bd
000003e0: af4a bf3d 1e9e c93c 4876 2dbe 2b50 043e
000003f0: ff9b 16bc df04 b63d 8936 debd eec5 3dbd

fc.bias f4 [194]
-0.27153552 0.4240529 -0.5638881 0.35953808 0.034459326 0.26920536 0.0979956 0.11022143
0.22698142 -0.48497415 0.34139028 0.30587214 -0.027129108 0.33749816 0.51797587 0.49017945
-0.5844306 -0.5807633 -0.27802363 -0.814359 0.13451666 -0.13623051 -0.4809197 0.38008368
-0.6502874 -0.2946775 -0.5463002 0.32989055 -0.67683727 -0.6420959 -0.66985095 -0.54722166
-0.74686456 -0.54700726 -0.74849963 -0.56911 -0.55131793 -0.6221717 -0.5503255 0.21687658
0.15049988 0.076626055 -0.5452421 0.09051538 -0.3474037 0.27623945 -0.33568636 -0.49718046
0.13867141 0.14676245 0.34086028 -0.56345296 -0.5005166 -0.5718172 0.060618 0.07984505
0.069777474 -0.4854833 -0.07858509 -0.8264901 -0.5893161 -0.6447327 -0.6249842 -0.6466173
-0.49785402 -0.5059206 -0.18933871 -0.6197306 -0.29118982 -0.4759036 -0.6293415 -0.056073222
-0.3658903 -0.4512708 -0.41750005 -0.45118555 -0.65054417 -0.14620242 -0.15273663 -0.5914827
-0.2651415 0.024676068 -0.6071541 -0.627765 -0.1344522 -0.62585604 -0.67281955 0.0586656
-0.5856296 -0.7777539 -0.5013107 -0.28285694 -0.8712444 -0.73564595 -0.2655687 -0.08080609
0.28696615 -0.48045346 -0.09770776 0.04460532 -0.24782763 -0.024186373 0.09305251 -0.118476324
-0.03500425 0.2179691 -0.04555391 0.09929726 -0.13152725 0.39883256 -0.19718483 0.09723031
-0.22482988 -0.42349565 -0.12417474 0.28796026 -0.43820116 -0.50869787 0.04186674 0.04339228
-0.041623898 -0.17775285 0.11010956 -0.2932417 0.020014616 -0.40629324 -0.32068217 -0.13346517
0.09659009 -0.1229754 -0.05641792 -0.068367355 -0.08863907 -0.30314052 -0.104089305 -0.088709705
-0.16535735 -0.13773152 -0.13213846 -0.041189205 -0.41353926 -0.28752294 -0.2198713 -0.3131335
0.29206273 -0.33521 -0.18186237 -0.5149201 -0.35671562 -0.4574161 -0.14816993 -0.047844462
-0.51061547 0.07228401 -0.36825022 -0.16386788 -0.23312949 -0.34645754 0.011738149 -0.18475226
-0.47307172 0.053503823 -0.47918993 -0.1209182 -0.19086765 -0.4749858 0.034701347 -0.45091507
-0.1554606 -0.10432948 -0.30345097 -0.23805565 -0.21198489 -0.5635172 -0.41516072 -0.53875595
-0.47825748 -0.5734874 -0.06047493 -0.6592399 -0.38644484 -0.6232779 -0.23829016 -0.5808255
-0.06943604 -0.59842324 -0.51830107 -0.5714742 -0.5079496 -0.7843878 -0.40042514 -0.63508016
-0.5623163 -0.5431637
00000000: b406 8bbe 761d d93e f85a 10bf 6015 b83e
00000010: 3925 0d3d 49d5 893e ebb1 c83d c6bb e13d
00000020: d16d 683e 884e f8be b5ca ae3e 469b 9c3e
00000030: dd3d debc 8fcc ac3e 119a 043f cdf8 fa3e
00000040: 3e9d 15bf e7ac 14bf 1d59 8ebe d579 50bf
00000050: bcbe 093e 0380 0bbe 1b3b f6be 549a c23e
00000060: 3c79 26bf f8df 96be 54da 0bbf 6ae7 a83e
00000070: 3545 2dbf 6660 24bf 5a7b 2bbf b816 0cbf
00000080: 8432 3fbf ab08 0cbf ac9d 3fbf 31b1 11bf
00000090: 2c23 0dbf a546 1fbf 22e2 0cbf e514 5e3e
000000a0: a41c 1a3e 1fee 9c3d fc94 0bbf 2160 b93d
000000b0: e6de b1be 426f 8d3e 15df abbe 708e febe
000000c0: e1ff 0d3e e548 163e 3d85 ae3e 743e 10bf
000000d0: db21 00bf 9d62 12bf 944a 783d cd85 a33d
000000e0: 7ee7 8e3d 4491 f8be 38f1 a0bd db94 53bf
000000f0: 6cdd 16bf 340d 25bf f7fe 1fbf b688 25bf
00000100: b9e6 febe 0384 01bf 02e2 41be aaa6 1ebf
00000110: d516 95be a3a9 f3be 861c 21bf 09ad 65bd
00000120: f955 bbbe f70c e7be 91c2 d5be cb01 e7be
00000130: 108a 26bf 16b6 15be fe66 1cbe 696b 17bf
00000140: a0c0 87be 7725 ca3c 736e 1bbf 35b5 20bf
00000150: d6ad 09be 1a38 20bf e73d 2cbf 574b 703d
00000160: d2eb 15bf e11a 47bf e655 00bf a0d2 90be
00000170: df09 5fbf 4b53 3cbf 9ff8 87be aa7d a5bd
00000180: 3aed 923e fffd f5be 021b c8bd 11b4 363d
00000190: 87c6 7dbe 8022 c6bc 5092 be3d b7a3 f2bd
000001a0: 9e60 0fbd 4b33 5f3e bd96 3abd 5d5c cb3d
000001b0: 14af 06be c833 cc3e d2ea 49be af20 c73d
000001c0: ce39 66be 6cd4 d8be 534f febd 876f 933e
000001d0: e75b e0be 063a 02bf 757c 2b3d 1abc 313d
000001e0: d27d 2abd d804 36be 1f81 e13d c723 96be
000001f0: b1f5 a33c ab05 d0be 7430 a4be 18ab 08be
00000200: 06d1 c53d 87da fbbd 7a16 67bd 2f04 8cbd
00000210: 6788 b5bd 3c35 9bbe c62c d5bd 6fad b5bd
00000220: 7053 29be 7e09 0dbe 4e4f 07be 03b6 28bd
00000230: 6bbb d3be 3536 93be f125 61be 0953 a0be
00000240: 3f89 953e a5a0 abbe 213a 3abe ced1 03bf
00000250: 6ea3 b6be 7132 eabe dcb9 17be 8ef8 43bd
00000260: b2b7 02bf a409 943d 4b8b bcbe fbcc 27be
00000270: 7fb9 6ebe e262 b1be 5e51 403c b22f 3dbe
00000280: 7536 f2be d326 5b3d 6258 f5be f6a3 f7bd
00000290: cf72 43be 5731 f3be 0023 0e3d 57de e6be
000002a0: 1031 1fbe b2aa d5bd ed5d 9bbe dcc4 73be
000002b0: 9112 59be aa42 10bf f28f d4be e9eb 09bf
000002c0: 2ade f4be 12d0 12bf 8fb4 77bd f2c3 28bf
000002d0: 19dc c5be 248f 1fbf 5602 74be fbb0 14bf
000002e0: 7c34 8ebd 4432 19bf 61af 04bf 224c 12bf
000002f0: fc08 02bf a4cd 48bf 8604 cdbe 9d94 22bf
00000300: f6f3 0fbf c70c 0bbf
